projection/weight/bs_32.pt (torch, 4167 bytes, 7 tensors)

layers.0.weight f4 [32, 2]
00000000: 8d81 49be 503f 103f baa0 923b ea2a 2fbf
00000010: fa15 2abc 673d 17bf cad8 853f b057 b0bf
00000020: ce04 eebf ec1f 213c 57b5 58bf 7dc9 943f
00000030: 9140 7c3f c883 153f f854 5540 017d f4be
00000040: f218 8fbe 2a96 e73f 69b3 3ebf bb93 513f
00000050: 3367 c9bd 3a50 09c0 09ec 713c d586 29bf
00000060: 777a 0bc0 8569 96be 9c6c 133f a2c0 9fbf
00000070: 012c 003e 9655 19c0 284b 60bd 6a24 673f
00000080: 21e1 1abf 0c3f 763e b14b 83be 9c83 533f
00000090: 58ab 733c ab85 04bf f828 41c0 c8f2 5f3e
000000a0: 04ee 66bf 9a95 96be 63fc 1b3e 8993 83bf
000000b0: 97e8 553f 66fa c63f bf59 e7bf 6053 0e3f
000000c0: fe9d 4d3f f26f a13f 89b8 98bf 9f24 6bbf
000000d0: a0c4 d03e 2798 3f40 47a9 f1bf e945 82bf
000000e0: 46bb 113f 8328 c4be e85c 37bf 53f1 063f
000000f0: d73b 8640 141c 863d f9ee f3be 5009 783f
-0.19678326 0.5634661 0.0044747265 -0.68424857 -0.010381216 -0.5907807 1.0456784 -1.377676
-1.8595216 0.009834271 -0.846517 1.1623989 0.9853602 0.5840421 3.333311 -0.4775162
-0.2794872 1.8092701 -0.7449251 0.81866044 -0.09834137 -2.1455216 0.014765748 -0.6622136
-2.1793497 -0.2937738 0.575876 -1.2480662 0.12516786 -2.3958488 -0.054759175 0.9028994
-0.6049977 0.24047488 -0.25643685 0.82622695 0.0148723945 -0.5176646 -3.0181255 0.21869957
-0.90206933 -0.29411012 0.15232997 -1.0279399 0.8355803 1.5545166 -1.8074263 0.5559597
0.803192 1.2612288 -1.1931316 -0.91852754 0.40775013 2.9936616 -1.8879784 -1.0177585
0.5692638 -0.38312158 -0.7162614 0.5271198 4.1948047 0.06548324 -0.4764326 0.9688921

layers.1.weight f4 [32]
00000000: cb2b 2e3d 74a2 383f 6bad 803f e6c8 7b3f
00000010: fe55 973f e00e 973f 26bd 463f e82a dc3f
00000020: 6d0a 303f b496 293e 37e1 863f ee76 0e3f
00000030: 2cde aa3f b374 373f 15ab 9a3f 0dee 813e
00000040: b2c7 953d df9a 243e 33a4 4b3f 23dd cc3f
00000050: 3066 203f 0dc9 a43f cb97 783f 0de3 963f
00000060: c155 2e3f f391 2c3f f21b 963f f05a 7f3f
00000070: b2a8 a73e 7772 083e cb91 ae3f 1f66 593d
0.042522233 0.72122884 1.0052923 0.9835342 1.1823118 1.1801414 0.7763237 1.7200594
0.6876591 0.16561395 1.053748 0.5565022 1.3349051 0.71662444 1.208346 0.2537693
0.073134795 0.16074704 0.79547423 1.6004986 0.62655926 1.2873856 0.9710662 1.178804
0.680996 0.674102 1.1727278 0.99748135 0.32745892 0.13324915 1.3638242 0.053075906

layers.1.bias f4 [32]
00000000: 9d8b 07bf 1db5 33bf 8b22 61bf 7ea7 753f
00000010: 44b6 8cbf fb9c e1bf 92e9 34bf 938a 2ebf
00000020: 2ffc 13bf 032c 0abf ddcd e03e 4425 15bf
00000030: 3e94 13bd 8164 053f ebf5 60bf c5c3 37bf
00000040: 7400 40be 33c9 1dbf 3402 56bf 5b5b 8cbf
00000050: ac01 86be 8b15 d7be aefd c1bf e8f9 ca3e
00000060: fa69 7cbf 5e09 3d3f aa00 2dbf fe1e 563f
00000070: 168c 44bf a6c4 23bf ed74 cabf 75b2 32be
-0.5294741 -0.7019823 -0.87943333 0.959587 -1.0993123 -1.7626032 -0.706689 -0.681802
-0.57806677 -0.53973407 0.4390706 -0.5825999 -0.036030047 0.5210648 -0.8787524 -0.71783096
-0.18750173 -0.6163513 -0.8359711 -1.096538 -0.2617315 -0.42008623 -1.5155542 0.39643788
-0.9859921 0.7384242 -0.6757914 0.8364104 -0.76776254 -0.63971937 -1.5816933 -0.17450888

layers.1.running_mean f4 [32]
00000000: 3a8d 403e 5d78 b0be 80fb 9bbe c204 38be
00000010: 71de 6abf 126e 2d3e 7fee 483f 89aa b43f
00000020: 8251 473f 235d 3a3d 3b78 91bf 0c23 a8be
00000030: 9e71 9dbf 9db0 b1be 8b85 93bf e173 dc3e
00000040: ac7b 36be 0154 953e 0b97 82be ac72 b1bf
00000050: eeb9 18bf 9220 e4be 39ee 993f 3760 1dbf
00000060: 9dd7 843f 185d 87bf 1727 dc3f 4aec b9bf
00000070: 018f b43d 5864 b4bd 434d 0740 bd7b 823e
0.18803874 -0.3446683 -0.30465317 -0.17970565 -0.9174567 0.1693652 0.78488916 1.4114543
0.77858746 0.04549898 -1.1364816 -0.3283924 -1.2300298 -0.34705058 -1.1525129 0.4305716
-0.17820615 0.29165652 -0.25505862 -1.386312 -0.59658706 -0.445561 1.2025825 -0.6147494
1.03783 -1.0575285 1.7199429 -1.4525235 0.08816338 -0.088082016 2.1140907 0.2548503

layers.1.running_var f4 [32]
00000000: 2507 ec3c fbc9 1d3d f9b3 eb3c 0e25 773e
00000010: f5e0 963e 7bc8 2a3e b9a3 e93d 9400 753f
00000020: 44e9 8b3e 33d9 ca3d 1f07 c33e 5cb3 133d
00000030: a8c9 d43e cf1b 1c3e 08bb f13e c061 893d
00000040: 83f5 0f3d 6b3e 783d 3b7f b43c 12db 463f
00000050: 60b4 9f3d 7560 b43d 370d 883e c5b9 983e
00000060: fe37 443e 0bb0 493e eb3a 423f fcc2 cc3e
00000070: 96a0 1d3d 5011 843d 3d41 c03f 1492 c03d
0.028812 0.0385227 0.028772341 0.24135229 0.29468504 0.1667804 0.11408181 0.9570401
0.27326405 0.09904709 0.3809137 0.036059722 0.41560102 0.15244983 0.47213006 0.067080975
0.035146248 0.0606064 0.022033324 0.77678025 0.07798076 0.0880746 0.26572582 0.2982923
0.19161984 0.19696061 0.7587115 0.3999251 0.038483225 0.064486146 1.5019909 0.09402862

height_layer.0.weight f4 [1, 32]
00000000: eec8 ecbd bd4c a0be 4440 fcbe ae4e 3bbf
00000010: af50 01bf 1d5c b6bc aa22 cc3e 1ff7 0a3f
00000020: f6a5 f83d e570 80be c212 10bf 00cd 7cbe
00000030: 6d10 a5be 615b fdbe f87c d3be e181 24be
00000040: 4a35 48be d4af 08be c447 50be 02d3 12be
00000050: fad6 fbbe 3ffe 74be 468f 2e3e 33ac 81bf
00000060: 1117 d33d cc77 4d3e cd07 263f 53fc 05bf
00000070: d4e9 6d3e f579 46be d3ac afbe 9ca0 2fbd
-0.11561762 -0.31308547 -0.4926778 -0.7316693 -0.5051374 -0.02226072 0.39870197 0.54283327
0.121410295 -0.25086132 -0.5627862 -0.24687576 -0.32239094 -0.4948378 -0.4130628 -0.1606517
-0.19551578 -0.13348323 -0.20339876 -0.14338306 -0.49187452 -0.23925112 0.17046842 -1.0130676
0.10307134 0.2006523 0.64855653 -0.5233814 0.2323373 -0.1938246 -0.34311542 -0.04287778

range_layer.0.weight f4 [1, 32]
00000000: 352f 803d e553 a5be e7f6 91be 71fb 2bbf
00000010: 6812 a8be 4b76 33bf 1c0a 343d 4cfe 64bf
00000020: d702 353e 986f 043d e6d1 1abe 56e6 bcbe
00000030: 72b9 06bf bcf8 d23d f66c 8ebe 0d74 efbc
00000040: 5ae7 77bb 2bc9 c9bb dea8 d6be 1764 16bf
00000050: 4a5b a33c 5598 cdbe 9d0a 2ebf 94f9 333f
00000060: c6d3 bcbd 1447 22bf 819a f53e cb86 29bf
00000070: 140d 143c 94bb 823c 4579 1abf 6525 8a3c
0.06259004 -0.3229057 -0.28508684 -0.67180544 -0.32826543 -0.70102376 0.043954954 -0.89450526
0.17676865 0.032332987 -0.15119132 -0.36894482 -0.5262672 0.103013486 -0.27817506 -0.029230142
-0.0037827105 -0.0061580143 -0.4192571 -0.58746475 0.019940991 -0.40155283 -0.67984945 0.703027
-0.0922008 -0.63389707 0.4796944 -0.662213 0.009036321 0.015958585 -0.6034129 0.016863534
