projection/weight/fea_1024.pt (torch, 35911 bytes, 7 tensors)

layers.0.weight f4 [1024, 2]
-0.55003536 0.16541952 -0.32511547 0.22635087 -0.33421782 -0.4735121 -0.046757046 0.6714216
0.5784519 0.04553814 0.4452384 0.016010953 -0.51011056 0.52949077 0.5412849 0.19665939
-0.92500365 -0.08187314 0.026812796 -0.5145552 0.60671365 0.51436454 -0.03297162 -0.63548374
-0.07504509 -0.32795015 0.6631064 -0.030070847 -0.40666795 0.44729945 -0.41992408 -0.0494009
0.8473433 -0.03481632 0.635123 0.31596687 0.3513148 0.55740315 -0.14750777 -0.88566995
0.24528871 0.6320944 0.5719145 0.63098437 0.048909646 -0.36217657 -0.037932105 -0.66690785
0.028719641 -0.53702545 0.63425106 0.15032727 0.45229074 0.04186947 -0.3145975 -0.5593163
0.5754245 0.014697308 -0.23001182 -0.49630255 -0.36837047 0.71699476 -0.06879656 -0.65767187
-0.29828912 -0.7293115 0.50892335 0.51926374 -0.8139889 0.13464816 0.614807 -0.18799739
0.45708755 -0.06705756 -0.15399183 -0.42940983 0.00936218 -0.38896576 -0.039448146 0.8033775
0.6223813 -0.056862492 0.67131454 0.022537652 -0.76712525 0.25265726 -0.27375397 0.5357556
-0.46374008 0.58872813 0.55224884 -0.011443584 -0.07620288 -0.57846606 0.40585688 -0.0065345904
0.7518653 0.11518443 0.56496644 0.062368017 0.008001223 -0.3255207 -0.005482986 -0.6821722
-0.16910423 -0.54362184 0.16407564 -0.9645816 -0.05286236 -0.89492124 -0.11353951 0.38086247
-0.7494759 -0.54465646 0.5192469 0.08355648 -0.049185812 0.20647827 -0.1393382 0.48012474
-0.11006068 -0.158416 -0.112526774 -0.76743 0.07224039 -0.5161448 0.5845956 -0.33504608
-0.24195905 0.5681453 -0.5919826 0.3718602 -0.1184369 -0.62252134 -0.77265555 -0.048759453
0.04170188 -0.33419856 -0.052134857 -0.5753221 -0.13010377 -0.77331597 0.8257709 0.07450868
0.5730074 -0.043553293 -0.35187706 -0.45008963 0.5954193 0.14993282 -0.030727465 -0.4465129
0.5041549 -0.4124444 0.38000265 -0.7849374 0.46305916 0.24417114 -0.16098338 -0.78258425
-0.17136618 0.43241405 -0.064644024 -0.33568963 0.5191076 -0.11304259 0.5858998 -0.1372075
-0.1345652 -0.83629674 -0.4254756 0.26411638 0.57271546 0.03537704 0.098928116 0.6934771
1.0871245 0.16284129 0.025974391 -0.5283128 -0.113667674 0.40042418 0.27849355 0.20931268
-0.02834727 0.56352067 0.003232222 -0.087878406 0.043671515 -0.6780409 0.7844597 -0.078532666
-0.2179971 -0.46235463 0.0429897 -0.5170354 -0.05961644 -0.48006266 -0.09704213 -0.44285044
0.51275325 -0.08055236 0.24817222 0.57820576 -0.012777301 -0.9133883 -0.37101886 0.5886725
-0.085374944 -0.53291136 0.4662458 0.06425837 0.011561424 -0.326448 0.07585913 -0.39309582
-0.085102 -0.51208913 -0.16477686 0.47969505 -0.18235314 0.51784986 0.0017178417 -0.36060354
0.02608132 -0.7007398 -0.1485568 -0.8229362 0.010358268 -0.35940164 -0.73075056 0.42720196
0.82814926 0.55332774 -0.9128698 -0.112089776 0.51157117 -0.3282001 -0.018937482 -0.32664043
-0.082862675 -0.7558841 0.5869374 -0.05625816 0.7891273 0.12039963 -0.29046947 -0.5353151
-0.08748963 -0.46594313 -0.103648975 0.26302168 -0.07233863 0.31889656 0.025751045 -0.41762045
00000000: 1ecf 0cbf bc63 293e 8975 a6be 86c8 673e
00000010: 991e abbe 2e70 f2be 5184 3fbd 49e2 2b3f
00000020: 6c15 143f 3386 3a3d 4af6 e33e 6729 833c
00000030: 9b96 02bf b58c 073f a691 0a3f 1461 493e
00000040: 0acd 6cbf 1bad a7bd 82a6 db3c e4b9 03bf
00000050: 9651 1b3f 65ad 033f 400d 07bd 10af 22bf
00000060: 3db1 99bd 15e9 a7be 57c1 293f 2357 f6bc
00000070: c836 d0be 6f04 e53e 4a00 d7be 9958 4abd
00000080: 7eeb 583f 8f9b 0ebd 6c97 223f 69c6 a13e
00000090: 89df b33e f9b1 0e3f 470c 17be 44bb 62bf
000000a0: f72c 7b3e f0d0 213f fd68 123f 3188 213f
000000b0: 7b55 483d 356f b9be b25e 1bbd 79ba 2abf
000000c0: 7445 eb3c 807a 09bf 475e 223f 64ef 193e
000000d0: a792 e73e 527f 2b3d ec12 a1be 5a2f 0fbf
000000e0: 054f 133f facc 703c 3888 6bbe 5e1b febe
000000f0: 0e9b bcbe f88c 373f 36e5 8cbd 2f5d 28bf
00000100: 5ab9 98be 29b4 3abf cd48 023f 78ee 043f
00000110: 9461 50bf 35e1 093e fe63 1d3f 6382 40be
00000120: 6107 ea3e 7955 89bd 09b0 1dbe 9bdb dbbe
00000130: d463 193c 8526 c7be 6194 21bd 26aa 4d3f
00000140: 6254 1f3f a5e8 68bd 45db 2b3f e2a0 b83c
00000150: 5262 44bf 4b5c 813e 7b29 8cbe 4727 093f
00000160: 576f edbe e3b6 163f 2e60 0d3f df7d 3bbc
00000170: 4110 9cbd 5a16 14bf 79cc cf3e 1e20 d6bb
00000180: 3f7a 403f d0e5 eb3d a4a1 103f 9b75 7f3d
00000190: 9017 033c a6aa a6be 9faa b3bb d6a2 2ebf
000001a0: a929 2dbe cd2a 0bbf 7203 283e d2ee 76bf
000001b0: 3486 58bd 8f19 65bf 6787 e8bd 6800 c33e
000001c0: a7dd 3fbf 9b6e 0bbf 5ded 043f a91f ab3d
000001d0: 1077 49bd 0a6f 533e acae 0ebe e9d2 f53e
000001e0: 7e67 e1bd ce37 22be 7074 e6bd 4b76 44bf
000001f0: c5f2 933d 1122 04bf 0fa8 153f 298b abbe
00000200: 1dc4 77be f871 113f 2c8c 17bf 7664 be3e
00000210: 0c8f f2bd 8f5d 1fbf c1cc 45bf feb7 47bd
00000220: 97cf 2a3d 131c abbe 5c8b 55bd 4f48 13bf
00000230: ec39 05be 09f8 45bf b965 533f 0298 983d
00000240: 9db0 123f f064 32bd 3b29 b4be 2672 e6be
00000250: 666d 183f fd87 193e 2ab8 fbbc 579d e4be
00000260: 4c10 013f ea2b d3be b58f c23e a8f1 48bf
00000270: 1716 ed3e 0008 7a3e d4d8 24be 7157 48bf
00000280: 9e7a 2fbe 6065 dd3e 1664 84bd 83df abbe
00000290: 3ce4 043f e082 e7bd 87fd 153f 1f80 0cbe
000002a0: 76cb 09be 8b17 56bf f0d7 d9be 433a 873e
000002b0: 7b9d 123f 84e7 103d d39a ca3d b787 313f
000002c0: e526 8b3f debf 263e 3fc8 d43c 823f 07bf
000002d0: 99ca e8bd 6604 cd3e b596 8e3e 1056 563e
000002e0: 8938 e8bc e442 103f b0d3 533b 98f9 b3bd
000002f0: e7e0 323d 1794 2dbf 5ad2 483f bcd5 a0bd
00000300: a23a 5fbe bfb9 ecbe f815 303d 6f5c 04bf
00000310: 5e30 74bd c6ca f5be 06be c6bd 4bbd e2be
00000320: cc43 033f a3f8 a4bd dc20 7e3e 4b05 143f
00000330: e257 51bc d1d3 69bf 2ff6 bdbe 3eb3 163f
00000340: 0fd9 aebd e16c 08bf c5b7 ee3e e499 833d
00000350: 206c 3d3c 3124 a7be 085c 9b3d db43 c9be
00000360: f549 aebd 4618 03bf 44bb 28be 979a f53e
00000370: c8ba 3abe cf91 043f 3429 e13a 07a1 b8be
00000380: 7ea8 d53c af63 33bf 461f 18be f2ab 52bf
00000390: bab5 293c 7e03 b8be 7812 3bbf 37ba da3e
000003a0: 9701 543f e3a6 0d3f d6b1 69bf 538f e5bd
000003b0: 54f6 023f d809 a8be c722 9bbc 6a3d a7be
000003c0: e8b3 a9bd 9f81 41bf 8841 163f f56e 66bd
000003d0: 3f04 4a3f 1594 f63d 6ab8 94be 690a 09bf
000003e0: c32d b3bd 1990 eebe ea45 d4bd c7aa 863e
000003f0: 4726 94bd 6946 a33e dbf3 d23c 59d2 d5be

layers.1.weight f4 [1024]
0.52409077 0.7430162 0.7594251 0.6896032 0.8241532 0.88578635 0.7946881 0.64334846
0.68060267 0.61025274 0.8173774 0.51970655 0.3281523 0.6746386 0.602102 0.8291029
0.7552773 0.80561036 0.77523625 0.58410907 0.7771738 0.8734361 0.5086085 0.7658698
0.60113007 0.68483377 0.88156736 0.88000965 0.79592097 0.9276467 0.37105554 0.5671344
0.8889993 0.87548435 0.7998366 0.5257591 0.5970333 0.87559795 0.48130023 0.5338162
0.6467749 0.76623225 0.4785192 0.49989465 0.7325277 0.8185176 0.368667 0.7054896
0.8641208 0.6196237 0.76684564 0.50999564 0.54846656 0.70801044 0.49047703 0.7609515
0.9491945 0.681889 0.5052901 0.3605351 0.6779376 0.5554267 0.62994534 0.8158633
0.49746802 0.71747696 0.60577524 0.74243194 0.6332037 0.32558486 0.38912442 0.74570405
0.63960993 0.93286175 0.6618254 0.5538353 0.7850293 0.91609776 0.75239354 0.57683426
0.46593088 0.32156536 0.720502 0.59551686 0.6919914 0.6543935 0.66804206 0.5804938
0.47917166 0.6214141 0.6267885 0.838089 0.7215587 0.6407747 0.5787247 0.64843273
0.93545485 0.65454984 0.74578005 0.7839853 0.69977814 0.5957807 0.6803632 0.80654407
0.59959745 0.67938024 0.5786217 0.90574926 0.509704 0.5256811 0.46171057 0.47312307
0.49216533 0.5145407 0.52013844 0.71808785 0.882139 0.6890741 0.26290455 0.5348435
0.46783033 0.61245173 0.80992734 0.7097443 0.8412259 0.56944984 0.4873478 0.5509062
0.51549757 0.48020718 0.6627494 0.6989089 0.38290924 0.845589 0.79016733 0.22951658
0.5586231 0.4744151 0.61008257 0.78250694 0.58136874 0.5796499 0.61064976 0.75517344
0.83084846 0.7871419 0.6557544 0.6780613 0.63763 0.80507195 0.73206556 0.5614119
0.68476444 0.86072075 0.28148502 0.66313386 0.58413327 0.6388592 0.75101537 0.437352
0.4056776 0.8026128 0.6166654 0.79142344 0.754327 0.5799361 0.7807233 0.6003669
0.5658121 0.40440124 0.69080657 0.87411577 0.752796 0.5229825 0.6108731 0.58062106
0.59533143 0.5433962 0.5947759 0.59739065 0.5866555 0.6940478 0.642086 0.69654244
0.49588078 0.6599697 0.5503997 0.4801704 0.5626618 0.7004445 0.86957383 0.36459458
0.60757744 0.56801707 0.7022183 0.700293 0.3253654 0.7490897 0.26156688 0.7211314
0.26735264 0.38286278 0.8050994 0.61839044 0.3988729 0.70967066 0.86362004 0.51780885
0.68117386 0.69457734 0.7160958 0.55289614 0.72647023 0.46359527 0.762475 0.4337406
0.51128185 0.5741148 0.73283696 0.61995625 0.7497873 0.5952122 0.84139055 0.71954167
0.85171294 0.8285036 0.67073625 0.54966116 0.5171539 0.6133242 0.6598827 0.5006651
0.59024173 0.8824199 0.76480705 0.66734695 0.8616248 0.68575716 0.570144 0.49853128
0.3195344 0.95028347 0.72964597 0.53307945 0.3814775 0.6250114 0.48054114 0.59469396
0.58438253 0.36718324 0.8156425 0.6095564 0.7493622 0.7535797 0.7148971 0.52580476
00000000: d02a 063f 4f36 3e3f af69 423f d689 303f
00000010: b4fb 523f e5c2 623f ae70 4b3f 7cb2 243f
00000020: fa3b 2e3f 8639 1c3f a53f 513f 7d0b 053f
00000030: 9403 a83e 1eb5 2c3f 5b23 1a3f 1640 543f
00000040: da59 413f 7b3c 4e3f e275 463f 2c88 153f
00000050: ddf4 463f 8299 5f3f 2b34 023f 0b10 443f
00000060: a9e3 193f 4451 2f3f 66ae 613f 5048 613f
00000070: 7ac1 4b3f 417a 6d3f fefa bd3e b82f 113f
00000080: 7595 633f be1f 603f 17c2 4c3f 2698 063f
00000090: 2dd7 183f 3027 603f fc6c f63e 2ea8 083f
000000a0: 0a93 253f cc27 443f 7800 f53e 31f2 ff3e
000000b0: ef86 3b3f 5f8a 513f ecc1 bc3e f79a 343f
000000c0: 0537 5d3f a99f 1e3f ff4f 443f 138f 023f
000000d0: 4e68 0c3f 2c40 353f ce1f fb3e b8cd 423f
000000e0: 69fe 723f 4790 2e3f b15a 013f 0e98 b83e
000000f0: 528d 2d3f 7230 0e3f 1944 213f 6bdc 503f
00000100: 21b4 fe3e 92ac 373f 1614 1b3f 0510 3e3f
00000110: a319 223f 0fb3 a63e 513b c73e 76e6 3e3f
00000120: 7abd 233f 07d0 6e3f 646d 293f 26c8 0d3f
00000130: aef7 483f 6285 6a3f dd9c 403f 69ab 133f
00000140: 7e8e ee3e 37a4 a43e d272 383f cb73 183f
00000150: 5926 313f 5586 273f ce04 2b3f 3e9b 143f
00000160: fd55 f53e ff14 1f3f 3675 203f 008d 563f
00000170: 12b8 383f d009 243f 4d27 143f b0ff 253f
00000180: f879 6f3f 9490 273f 71eb 3e3f 43b3 483f
00000190: a924 333f 1585 183f 482c 2e3f ac79 4e3f
000001a0: 387f 193f ddeb 2d3f 8d20 143f 2fdf 673f
000001b0: f67b 023f 0993 063f 5465 ec3e 303d f23e
000001c0: 18fd fb3e f0b8 033f cb27 053f 9bd4 373f
000001d0: ddd3 613f 2967 303f 6d9b 863e 81eb 083f
000001e0: 7587 ef3e a3c9 1c3f 6657 4f3f cdb1 353f
000001f0: 955a 573f 77c7 113f a785 f93e 3008 0d3f
00000200: a6f7 033f b7dd f53e f2a9 293f b2eb 323f
00000210: ae0c c43e 8578 583f 6848 4a3f 6506 6b3e
00000220: ec01 0f3f 89e6 f23e 5f2e 1c3f 6052 483f
00000230: 95d4 143f f063 143f 8b53 1c3f 0c53 413f
00000240: 7cb2 543f 2282 493f 85df 273f 6d95 2d3f
00000250: b83b 233f 3219 4e3f a668 3b3f b1b8 0f3f
00000260: b94c 2f3f 3258 5c3f ce1e 903e 24c3 293f
00000270: c289 153f 478c 233f 8b42 403f 9aec df3e
00000280: f9b4 cf3e 0878 4d3f c9dd 1d3f ba9a 4a3f
00000290: 931b 413f b176 143f 7bdd 473f a5b1 193f
000002a0: 10d9 103f ae0d cf3e b3d8 303f 0dc6 5f3f
000002b0: 3db7 403f 2ee2 053f 2e62 1c3f 95a3 143f
000002c0: a467 183f 031c 0b3f 3c43 183f 98ee 183f
000002d0: 0e2f 163f 1ead 313f c05f 243f 9b50 323f
000002e0: 16e4 fd3e c6f3 283f ffe6 0c3f e5d8 f53e
000002f0: 9b0a 103f 5550 333f 649c 5e3f 24ac ba3e
00000300: 328a 1b3f 9169 113f 94c4 333f 6746 333f
00000310: 4b96 a63e 58c4 3f3f 18ec 853e 119c 383f
00000320: 72e2 883e 9706 c43e ff1a 4e3f d64e 1e3f
00000330: 1239 cc3e faac 353f 3416 5d3f 1f8f 043f
00000340: 6961 2e3f d2cf 313f 0e52 373f 9a8a 0d3f
00000350: f4f9 393f 5c5c ed3e 9031 433f 3f13 de3e
00000360: 5ee3 023f 30f9 123f 349b 3b3f 74b5 1e3f
00000370: 0ff2 3f3f d45f 183f 5f65 573f e233 383f
00000380: dc09 5a3f d018 543f 5fb5 2b3f 98b6 0c3f
00000390: 3364 043f d102 1d3f 13ee 283f 972b 003f
000003a0: 151a 173f 45e6 613f 65ca 433f 40d7 2a3f
000003b0: 7193 5c3f c88d 2f3f f5f4 113f 7e3f ff3e
000003c0: 039a a33e c745 733f 14ca 3a3f e577 083f
000003d0: 0551 c33e bf00 203f 7d09 f63e dd3d 183f
000003e0: 189a 153f 71ff bb3e f2cd 503f e30b 1c3f
000003f0: 33d6 3f3f 99ea 403f 7f03 373f 249b 063f

layers.1.bias f4 [1024]
0.4860755 -0.1311593 -0.4331455 -0.34741634 -0.20215958 -0.08217082 -0.5316987 -0.7675742
-0.90095896 -0.7623582 -0.2345708 -0.707189 -0.50834876 -0.19411182 0.05417909 0.035268497
-1.0691694 -0.18826361 -1.2359592 -0.742137 0.0065830904 -0.13552544 -0.56975895 -0.5126258
-0.76030993 -0.8784703 -0.10595033 -0.19793412 -0.14907762 -0.15359905 -0.15289672 -0.76969707
-0.15815856 -0.060830105 -0.43561792 0.19335684 -0.51874006 -0.28723034 -0.656487 -0.688665
0.042612452 -0.17372915 0.41936898 0.11865374 -0.6400685 -0.047153663 -0.5638254 -0.14754324
-0.15332565 -0.36967298 -0.455194 -0.7190305 -0.6925609 -0.40560716 -0.7032557 -0.18478827
0.20694904 -0.2894223 -0.48061433 -0.11284013 -0.5188198 -0.6550284 -0.5706619 -0.016134737
-0.102364 0.01832505 -0.6478315 -0.98899245 -0.67608064 -0.4759539 -0.62099797 -1.1140653
-0.11208924 0.16347437 -0.527102 -0.6936814 0.17512736 -0.08383907 -0.19302814 -0.6223416
-0.26934952 -0.5222821 -0.24792603 -0.6463137 -0.5046419 -0.80387133 -0.24905635 -0.84602237
-0.5426306 -0.72546524 -0.14384113 -0.17432874 -0.22974898 -0.6829171 -0.6406182 -0.86454207
0.26548204 -0.6977103 -0.559625 -0.3626141 -0.15608104 -0.6706618 -0.5772467 -0.13586172
-0.672145 -0.283128 -0.7936398 -0.14618218 -0.7269574 0.27443767 -0.3338159 -0.5152994
-0.67526186 -0.6802829 -0.6590502 0.2123217 -0.1530543 -0.856344 -0.2865876 -0.67724997
-0.7017355 -0.23316237 -0.34725502 -0.47488162 -0.27879462 -0.08791944 -0.4980761 -0.758285
-0.74180865 -0.7099974 -0.41042218 -0.1934999 0.3126177 -1.1904116 -0.46459 -0.37833387
-0.7063616 -0.39880398 0.26451525 -0.23835039 -0.7658601 -0.6714263 -0.33242148 -0.3894575
-0.264374 -0.40204594 -0.46888146 -0.8285982 -0.18899494 -0.20663497 -0.46210706 -0.6580097
-0.6451912 -0.19137393 -0.41495007 -0.16672015 -0.1483109 -0.17102394 -0.68193066 -0.726709
0.14267002 0.06465357 -0.8153561 0.08968505 -0.55479914 -0.14672408 -0.44268134 -0.120406196
-0.78656644 -0.4944361 -0.14697443 -0.12814023 0.06862975 -0.27102658 -0.5784945 -0.74056894
-0.80295014 -0.7041834 0.2955376 -0.7344983 -0.7819755 -0.97313994 -0.5800376 -0.28503025
-0.67654926 -0.1337986 -0.7902979 -0.688025 -0.5063525 -0.96274674 -0.21402757 -0.5417832
0.12837702 -0.7880704 -0.116060525 0.30299154 -0.52957934 -0.13067082 -0.37744996 -0.7499094
0.13400978 -0.6705853 -0.43103525 -1.0321901 -0.6449664 -0.3679664 -0.20534821 -0.6689286
-0.36727604 -0.41951773 -0.039600577 -0.7317573 -0.19892502 -0.69374275 -0.08580517 0.22396074
-0.46233276 -0.645899 -0.3244327 -0.82780486 -0.55056643 -0.3326796 -0.26433796 -0.5399199
-0.17568775 -0.2826551 -0.63004845 -0.37265122 -0.72684157 -0.60754657 -0.5865677 -0.7103456
0.38836268 -0.18716264 -0.060325217 -0.35930306 -0.102782756 -0.9669298 -0.70223105 -0.68195647
-0.55543077 0.15904729 -0.26668707 -0.74547166 0.10471277 -0.8377814 -0.71052897 0.14232445
-0.7483771 0.32146016 -0.31804943 -0.6888277 -0.41312727 -1.258325 -0.2783592 -0.0695959
00000000: e3de f83e a04e 06be 3fc5 ddbe 8ee0 b1be
00000010: ec02 4fbe 2d49 a8bd 681d 08bf be7f 44bf
00000020: 3fa5 66bf e829 43bf 5433 70be 570a 35bf
00000030: 2523 02bf 40c5 46be e5ea 5d3d b375 103d
00000040: 8bda 88bf 2dc8 40be e933 9ebf b1fc 3dbf
00000050: f7b6 d73b 2ec7 0abe b9db 11bf 723b 03bf
00000060: aca3 42bf 6ee3 60bf 7dfc d8bd 3eaf 4abe
00000070: cea7 18be 1249 1dbe f590 1cbe de0a 45bf
00000080: 51f4 21be fd28 79bd 5009 dfbe 56ff 453e
00000090: 26cc 04bf db0f 93be 880f 28bf 594c 30bf
000000a0: 658a 2e3d 0ee6 31be 88b7 d63e bb00 f33d
000000b0: 87db 23bf 3324 41bd dd56 10bf 9315 17be
000000c0: 6601 1dbe c745 bdbe 300f e9be 6212 38bf
000000d0: ac4b 31bf beab cfbe 9108 34bf 2339 3dbe
000000e0: 73ea 533e 292f 94be 1513 f6be ba18 e7bd
000000f0: 60d1 04bf f1af 27bf e616 12bf ff2c 84bc
00000100: 38a4 d1bd 6a1e 963c 49d8 25bf 9c2e 7dbf
00000110: 9f13 2dbf 3bb0 f3be b9f9 1ebf b199 8ebf
00000120: 0b8f e5bd d365 273e 28f0 06bf 1b95 31bf
00000130: 9654 333e d1b3 abbd 2ba9 45be c751 1fbf
00000140: 2ee8 89be 48b4 05bf 52e0 7dbe d174 25bf
00000150: 3630 01bf 83ca 4dbf a108 7fbe ec94 58bf
00000160: d7e9 0abf 17b8 39bf 174b 13be 3c83 32be
00000170: 5143 6bbe a8d3 2ebf 8eff 23bf a152 5dbf
00000180: 43ed 873e 249d 32bf 9643 0fbf 8ea8 b9be
00000190: b5d3 1fbe 7eb0 2bbf 71c6 13bf 561f 0bbe
000001a0: b211 2cbf 27f6 90be fa2b 4bbf c8b0 15be
000001b0: e119 3abf 1883 8c3e ebe9 aabe a9ea 03bf
000001c0: f6dd 2cbf 0527 2ebf 84b7 28bf dc6a 593e
000001d0: 44ba 1cbe 5c39 5bbf 9cbb 92be 4160 2dbf
000001e0: f0a4 33bf 1ec2 6ebe 69cb b1be af23 f3be
000001f0: 2bbe 8ebe 1b0f b4bd d503 ffbe f71e 42bf
00000200: 2ce7 3dbf 64c2 35bf db22 d2be d624 46be
00000210: 6d0f a03e 685f 98bf bede edbe fab4 c1be
00000220: 1dd4 34bf 0930 ccbe 8b6e 873e 2012 74be
00000230: 680f 44bf 98e2 2bbf 2633 aabe f966 c7be
00000240: 075c 87be f7d8 cdbe 3b11 f0be 031f 54bf
00000250: e487 41be 1e98 53be 4c99 ecbe 5373 28bf
00000260: 402b 25bf 87f7 43be 5674 d4be b0b8 2abe
00000270: d0de 17be e620 2fbe 0293 2ebf 9a09 3abf
00000280: 1718 123e 1769 843d 2dbb 50bf ccac b73d
00000290: 5107 0ebf d63e 16be 21a7 e2be 8697 f6bd
000002a0: 6b5c 49bf ba26 fdbe 7780 16be 3137 03be
000002b0: c18d 8c3d ffc3 8abe 3718 14bf ed95 3dbf
000002c0: 248e 4dbf 5d45 34bf b450 973e 1508 3cbf
000002d0: 8c2f 48bf b31f 79bf 587d 14bf 7cef 91be
000002e0: 5532 2dbf 8002 09be f750 4abf 6822 30bf
000002f0: 51a0 01bf 9276 76bf 0b2a 5bbe 4eb2 0abf
00000300: 4475 033e fbbe 49bf 24b1 edbd b521 9b3e
00000310: 8392 07bf 92ce 05be 1f41 c1be 10fa 3fbf
00000320: dc39 093e 7aab 2bbf a7b0 dcbe ce1e 84bf
00000330: 851c 25bf 1866 bcbe cd46 52be e83e 2bbf
00000340: 9b0b bcbe 07cb d6be 3734 22bd 7254 3bbf
00000350: 00b3 4bbe 2099 31bf 9fba afbd f755 653e
00000360: e1b6 ecbe a359 25bf 0b1c a6be 05eb 53bf
00000370: ecf1 0cbf fb54 aabe 4e57 87be 3138 0abf
00000380: 7de7 33be 2bb8 90be db4a 21bf 24cc bebe
00000390: 4a12 3abf 2c88 1bbf 4d29 16bf 36d9 35bf
000003a0: 79d7 c63e 90a7 3fbe 9317 77bd 92f6 b7be
000003b0: c47f d2bd b688 77bf 6ac5 33bf b394 2ebf
000003c0: b630 0ebf 4bdd 223e 358b 88be 3bd7 3ebf
000003d0: a673 d63d d878 56bf 3ae5 35bf 80bd 113e
000003e0: a495 3fbf 6d96 a43e 60d7 a2be 0357 30bf
000003f0: 6b85 d3be cb10 a1bf 1985 8ebe 4c88 8ebd

layers.1.running_mean f4 [1024]
-0.19315961 -0.04998756 -0.40383798 0.31163186 0.31268656 0.23117504 0.008568054 0.36947384
-0.50453585 -0.24335691 0.5608237 -0.33367315 -0.20128317 0.31735873 0.019352034 -0.23514913
0.40734676 0.47605297 0.45427835 -0.51594144 0.43840584 0.60157955 -0.15622373 -0.35184163
-0.25361395 0.3929527 0.24761502 -0.4368251 0.29577777 -0.36298025 0.17314716 -0.36270303
-0.5134902 0.5142493 -0.3408088 0.21433985 0.19563048 -0.2914899 -0.18942474 0.3811934
0.2835721 0.3477575 -0.25844368 0.13013181 0.0613758 0.27108434 -0.3268852 0.2001567
0.43437102 0.31432545 -0.15845852 -0.3431965 -0.35606524 -0.39913234 -0.47311926 0.13318038
-0.64750344 0.30198202 0.07839427 0.1697434 -0.13422553 -0.43940216 -0.22138485 0.12583815
0.16228299 -0.11114998 -0.37004983 -0.4116426 -0.14588708 -0.31325147 -0.45114526 0.4511182
0.2654727 -0.40100494 0.37329078 -0.23824207 0.046897255 -0.20124461 0.35397255 -0.47125128
0.12990083 -0.19993208 0.20377906 0.22519691 -0.48481753 -0.08144666 0.30474025 0.39567298
0.6262098 -0.2506425 0.1428907 0.24405909 0.26704374 -0.042242024 -0.316495 0.35400864
-0.34001586 -0.23648743 -0.26946843 -0.2696549 0.21680145 0.41295782 -0.46223295 0.10782074
-0.30875063 0.2657837 -0.15712634 -0.15817484 -0.29822153 0.15679014 0.16701874 -0.1790992
-0.33663744 -0.4851593 -0.17417164 -0.1530915 0.69126755 -0.5135333 0.09262833 -0.17250727
-0.41876668 0.26614413 0.455652 -0.41275406 -0.27638602 0.07929254 0.122916184 -0.1955122
-0.367031 -0.489887 0.5947712 0.1583618 0.18420635 -0.50228673 -0.09868553 -0.09121121
-0.41440874 0.5015453 0.15639685 0.4491655 -0.14276654 -0.40847525 0.2890056 0.109284595
-0.5762907 -0.4882222 0.3170702 0.44133922 0.2198477 0.19296944 -0.27940813 -0.6924698
-0.38005656 -0.37633687 -0.20047432 0.13439707 0.13676712 0.07867988 -0.19894199 -0.40132612
0.15672827 0.25892374 0.35135582 -0.13974158 -0.4470482 0.18238737 0.41379935 0.2543663
0.3293164 0.13765125 0.36931327 0.68200666 0.3291895 0.09032918 -0.41091982 -0.28388688
-0.30021596 -0.16552716 0.15128428 -0.48872948 -0.2750337 -0.31530094 -0.09369208 0.32475233
-0.23046319 0.27317575 -0.32158083 -0.11399409 0.27364066 0.15457197 -0.32020256 -0.1337244
0.097599186 -0.048350167 0.271455 -0.18825354 -0.40446216 0.47220495 -0.3415301 -0.19876452
0.07181887 -0.46877858 -0.48420715 -0.16275516 -0.284798 0.29820722 -0.64175016 -0.2970467
-0.24015164 0.32768202 0.24288164 -0.18994509 0.109585 -0.35542908 -0.21229336 -0.17712045
0.2654758 -0.27356568 0.16994126 -0.11567388 -0.37623587 0.0653877 -0.26853472 -0.3778764
0.065563366 -0.15798599 -0.40929848 0.17063576 -0.47570837 -0.10321433 0.4128524 -0.3817109
0.18157803 -0.4371397 0.4754638 0.501566 0.3112912 -0.06787395 0.26034862 -0.27222928
-0.28210917 -0.29105464 0.26738903 -0.15596072 0.118217215 0.39066032 -0.52382874 0.11143423
-0.5008495 -0.09506741 0.041256722 -0.4790045 -0.43809932 0.3761851 0.57369226 0.14035818
00000000: a2cb 45be c1bf 4cbd dac3 cebe 368e 9f3e
00000010: 7418 a03e 26b9 6c3e 0661 0c3c ad2b bd3e
00000020: 4329 01bf 8e32 79be 2492 0f3f 35d7 aabe
00000030: 2d1d 4ebe d87c a23e 2888 9e3c efca 70be
00000040: c18f d03e 37bd f33e 2c97 e83e bd14 04bf
00000050: bb76 e03e 1e01 1a3f 1df9 1fbe 9624 b4be
00000060: b0d9 81be 1931 c93e cb8e 7d3e 8aa7 dfbe
00000070: 2f70 973e 8cd8 b9be 7d4d 313e 36b4 b9be
00000080: 1874 03bf d8a5 033f 7e7e aebe e87b 5b3e
00000090: 5b53 483e 2a3e 95be 8ff8 41be c82b c33e
000000a0: 5d30 913e 450d b23e bb52 84be 4641 053e
000000b0: 3165 7b3d 91cb 8a3e 7f5d a7be e1f5 4c3e
000000c0: e165 de3e 44ef a03e f342 22be 74b7 afbe
000000d0: 2f4e b6be 135b ccbe b03c f2be 7060 083e
000000e0: c9c2 25bf 639d 9a3e 2d8d a03d 37d1 2d3e
000000f0: 6b72 09be 52f9 e0be b6b2 62be b7db 003e
00000100: 832d 263e 9aa2 e3bd 2c77 bdbe d2c2 d2be
00000110: 6c63 15be 7f62 a0be 83fc e6be f7f8 e63e
00000120: 0aec 873e 8550 cdbe f81f bf3e bbf5 73be
00000130: 5617 403d 1113 4ebe e43b b53e d947 f1be
00000140: b904 053e ffba 4cbe 75ab 503e 059a 663e
00000150: 013a f8be 82cd a6bd ea06 9c3e a695 ca3e
00000160: 494f 203f 3754 80be f151 123e a0ea 793e
00000170: f5b9 883e f905 2dbd a20b a2be 9f40 b53e
00000180: 8f16 aebe c329 72be c4f7 89be 3510 8abe
00000190: 3301 5e3e 356f d33e cca9 ecbe 1fd1 dc3d
000001a0: 9014 9ebe cd14 883e bae5 20be 96f8 21be
000001b0: 7eb0 98be 988d 203e f606 2b3e c865 37be
000001c0: be5b acbe cd66 f8be 0d5a 32be 05c4 1cbe
000001d0: e9f6 303f eb76 03bf ecb3 bd3d bfa5 30be
000001e0: 9668 d6be 0b44 883e 384b e93e 8054 d3be
000001f0: 7882 8dbe 2164 a23d 7bbb fb3d 5a34 48be
00000200: 7deb bbbe 78d2 fabe ed42 183f 9829 223e
00000210: 97a0 3c3e dd95 00bf a41b cabd f1cc babd
00000220: 622d d4be 4665 003f 7f26 203e 05f9 e53e
00000230: 6431 12be ab23 d1be 8bf8 933e 9ad0 df3d
00000240: ca87 13bf 43f8 f9be 0657 a23e 37f7 e13e
00000250: c11f 613e c899 453e 950e 8fbe b345 31bf
00000260: c696 c2be 3aaf c0be 2449 4dbe 639f 093e
00000270: ae0c 0c3e eb22 a13d 73b7 4bbe 9e7a cdbe
00000280: 607d 203e a791 843e e9e4 b33e 6b18 0fbe
00000290: 80e3 e4be c1c3 3a3e 82dd d33e 4d3c 823e
000002a0: 299c a83e 73f4 0c3e a116 bd3e fd97 2e3f
000002b0: 878b a83e 81fe b83d 1564 d2be 9f59 91be
000002c0: e8b5 99be f47f 29be 44ea 1a3e c03a fabe
000002d0: 38d1 8cbe 206f a1be a2e1 bfbd f045 a63e
000002e0: 8bfe 6bbe b1dd 8b3e 3ea6 a4be bc75 e9bd
000002f0: a11a 8c3e 1d48 1e3e 97f1 a3be 0def 08be
00000300: 15e2 c73d d30a 46bd 26fc 8a3e 89c5 40be
00000310: aa15 cfbe d9c4 f13e 09dd aebe ed88 4bbe
00000320: c615 933d bf03 f0be 00ea f7be 4aa9 26be
00000330: 0bd1 91be 9eae 983e bd49 24bf 8116 98be
00000340: 50ea 75be f0c5 a73e f7b5 783e f780 42be
00000350: 1a6e e03d cdfa b5be 6e63 59be 105f 35be
00000360: 72ec 873e cd10 8cbe 1505 2e3e 6de6 ecbd
00000370: fda1 c0be fde9 853d 627d 89be 0479 c1be
00000380: 1646 863d 14c7 21be 928f d1be 24bb 2e3e
00000390: 0c90 f3be 0962 d3bd 6461 d33e 9c6f c3be
000003a0: 97ef 393e c6d0 dfbe fe6f f33e a166 003f
000003b0: 8f61 9f3e 7f01 8bbd 6a4c 853e a361 8bbe
000003c0: 9d70 90be 1d05 95be 37e7 883e 2bb4 1fbe
000003d0: de1b f23d a104 c83e a419 06bf a137 e43d
000003e0: ac37 00bf b4b2 c2bd cffc 283d 1440 f5be
000003f0: 8e4e e0be 559b c03e 7fdd 123f 0eba 0f3e

layers.1.running_var f4 [1024]
0.027512183 0.013081941 0.027935741 0.037666667 0.02807038 0.016549977 0.045040276 0.027634038
0.071894705 0.022075044 0.052651085 0.033664063 0.009408598 0.03673808 0.03044659 0.014904798
0.0599678 0.041909643 0.036099527 0.06701559 0.038214393 0.060330093 0.011107619 0.037095647
0.024048695 0.035411634 0.017201006 0.03424042 0.027628401 0.024874913 0.05408816 0.03635061
0.05161236 0.043981142 0.056764886 0.034468193 0.017796572 0.017300153 0.012586721 0.05379988
0.032568622 0.03762047 0.0543994 0.03013093 0.046783183 0.025438415 0.028300062 0.013736969
0.048229534 0.026935892 0.008816508 0.03869308 0.026943617 0.079621404 0.066814445 0.013141589
0.071450755 0.02305826 0.003747747 0.020792047 0.0030941395 0.05001151 0.02259019 0.037853353
0.031737838 0.04074407 0.033380672 0.049974 0.009433112 0.02774266 0.051119454 0.05731458
0.027535932 0.027146956 0.03142108 0.016653456 0.035362527 0.06330376 0.022821581 0.05306457
0.018004058 0.009714853 0.023537304 0.030196426 0.059644133 0.02090757 0.027453355 0.04078777
0.10073038 0.023264306 0.014415648 0.010102391 0.026473554 0.00064298237 0.038386784 0.051828224
0.021722032 0.022383291 0.01945376 0.0170839 0.022464931 0.032912403 0.06937602 0.040317483
0.024214102 0.018467419 0.008871929 0.013332323 0.022401327 0.021405065 0.025080048 0.01081173
0.04088491 0.058130786 0.010748872 0.059736807 0.08258442 0.07051914 0.030797334 0.00889994
0.048068844 0.028992122 0.053120002 0.030841148 0.018683825 0.006650618 0.008895587 0.014557262
0.037298266 0.05816002 0.058829483 0.05907373 0.03732524 0.08122022 0.00262647 0.002030889
0.04012967 0.04994968 0.0043400065 0.04479425 0.008090191 0.035024628 0.022711685 0.03321837
0.064935565 0.039932333 0.025572112 0.06694796 0.011385416 0.036089655 0.0135017475 0.084200844
0.042115793 0.027778054 0.0104779005 0.024427326 0.014522248 0.015923109 0.031922195 0.0283991
0.028110435 0.027098155 0.02335379 0.06349836 0.05670851 0.028491322 0.04168851 0.026677862
0.027878549 0.013941553 0.06309319 0.07751853 0.041742444 0.009775632 0.037960716 0.021053463
0.032929175 0.008769264 0.013912402 0.0865835 0.026740152 0.035720997 0.002913982 0.04260736
0.015007208 0.012678885 0.030558705 0.005859198 0.026865918 0.00924373 0.017726263 0.0041581304
0.031886104 0.0008705734 0.032955825 0.074441776 0.040602453 0.055729445 0.033113558 0.01652389
0.010371984 0.0383007 0.06575278 0.044983696 0.020267354 0.020631347 0.07622723 0.028885476
0.06775328 0.024961224 0.038463138 0.012853416 0.0020625019 0.031348146 0.012693124 0.0714192
0.0121077 0.024367437 0.0072633573 0.004961056 0.035568856 0.0041966685 0.015591091 0.05094138
0.022488814 0.0063898847 0.07440721 0.0048432383 0.068638526 0.0018453123 0.03535279 0.041919492
0.011158031 0.032040443 0.064474866 0.063795015 0.027095778 0.0017003501 0.032973144 0.024325013
0.0148158595 0.014091157 0.039343316 0.009783876 0.04304001 0.035316538 0.07221779 0.0020751578
0.06361525 0.03355007 0.003113118 0.05244447 0.055184465 0.025709521 0.055614486 0.027886832
00000000: 3b61 e13c a355 563c 7fd9 e43c 5d48 1a3d
00000010: dbf3 e53c d193 873c 277c 383d c760 e23c
00000020: 883d 933d b9d6 b43c aaa8 573d 54e3 093d
00000030: 8526 1a3c ab7a 163d 216b f93c 4133 743c
00000040: cca0 753d 72a9 2b3d 19dd 133d 783f 893d
00000050: b286 1c3d b01c 773d bbfc 353c 9bf1 173d
00000060: c501 c53c ca0b 113d 20e9 8c3c af3f 0c3d
00000070: f554 e23c 79c6 cb3c 8c8b 5d3d 61e4 143d
00000080: 7b67 533d 9225 343d 4c82 683d 852e 0d3d
00000090: 1eca 913c 0db9 8d3c 8938 4e3c 435d 5c3d
000000a0: ad66 053d ec17 1a3d e8d1 5e3d 24d5 f63c
000000b0: b99f 3f3d 3964 d03c 88d5 e73c 0611 613c
000000c0: 558c 453d a9a8 dc3c 1d73 103c a37c 1e3d
000000d0: dcb8 dc3c 8c10 a33d 03d6 883d d24f 573c
000000e0: c654 923d ade4 bc3c c39c 753b 1554 aa3c
000000f0: 0cc7 4a3b ded8 4c3d 100f b93c 1e0c 1b3d
00000100: 89ff 013d 41e3 263d 2cba 083d 89b1 4c3d
00000110: 578d 1a3c 9344 e33c a262 513d b1c2 6a3d
00000120: 0993 e13c 4b63 de3c 64b3 003d d46c 883c
00000130: 4cd8 103d 67a5 813d 53f4 ba3c 3c5a 593d
00000140: 3f7d 933c 0c2b 1f3c 4ed1 c03c 7f5e f73c
00000150: 684d 743d 5a46 ab3c dce5 e03c 1411 273d
00000160: bb4b ce3d c994 be3c 9c2f 6c3c 8084 253c
00000170: 11df d83c d18d 283a 763b 1d3d d549 543d
00000180: 67f2 b13c 2a5d b73c 7e5d 9f3c 89f3 8b3c
00000190: 6008 b83c 28cf 063d 0415 8e3d f223 253d
000001a0: a75c c63c fc48 973c 915b 113c d16f 5a3c
000001b0: fd82 b73c ad59 af3c ac74 cd3c af23 313c
000001c0: ef76 273d 8c1a 6e3d 091c 303c 95ae 743d
000001d0: 0522 a93d 576c 903d b14a fc3c 0ed1 113c
000001e0: d6e3 443d e380 ed3c 5c94 593d 93a6 fc3c
000001f0: d20e 993c 6ded d93b ccbe 113c 9581 6e3c
00000200: 11c6 183d 3339 6e3d 2ff7 703d 4cf7 713d
00000210: 5ae2 183d c956 a63d db20 2c3b aa18 053b
00000220: 025f 243d 0998 4c3d 9d36 8e3b 2d7a 373d
00000230: b88c 043c fc75 0f3d db0d ba3c fc0f 083d
00000240: f0fc 843d 1690 233d 9b7c d13c 031c 893d
00000250: e589 3a3c bfd2 133d 6f36 5d3c 7e71 ac3d
00000260: 9c81 2c3d cd8e e33c 80ab 2b3c d11b c83c
00000270: b9ee 6d3c 2e71 823c d9c0 023d 3ba5 e83c
00000280: db47 e63c f3fc dd3c 7350 bf3c 6e0b 823d
00000290: 2f47 683d a266 e93c 92c1 2a3d 888b da3c
000002a0: 8e61 e43c 1d6b 643c 0137 813d 09c2 9e3d
000002b0: 20fa 2a3d f929 203c b27c 1b3d 5078 ac3c
000002c0: bee0 063d f6ac 0f3c d8f0 633c b152 b13d
000002d0: 2a0e db3c 2e50 123d 81f8 3e3b 0e85 2e3d
000002e0: cbe0 753c 19bb 4f3c 4056 fa3c 84fe bf3b
000002f0: ea15 dc3c 0473 173c ab36 913c ed40 883b
00000300: 019b 023d 3137 643a b0fc 063d ee74 983d
00000310: c24e 263d 8f44 643d 15a2 073d 1c5d 873c
00000320: 41ef 293c 32e1 1c3d 65a9 863d d340 383d
00000330: b907 a63c 1203 a93c 061d 9c3d 3ca1 ec3c
00000340: 3bc2 8a3d 7b7b cc3c 868b 1d3d 2297 523c
00000350: 0a2b 073b ea66 003d d2f6 4f3c 3b44 923d
00000360: 605f 463c 389e c73c 7501 ee3b 5b90 a23b
00000370: a6b0 113d 3584 893b c671 7f3c e9a7 503d
00000380: 763a b83c 3d62 d13b cf62 983d 07b4 9e3b
00000390: 5b92 8c3d 68de f13a 16ce 103d c6b3 2b3d
000003a0: 2dd0 363c d73c 033d 660b 843d f6a6 823d
000003b0: f7f7 dd3c 48de de3a d90e 073d 4045 c73c
000003c0: 38be 723c 99de 663c 7526 213d 8d4c 203c
000003d0: b94a 303d 13a8 103d ece6 933d 5fff 073b
000003e0: b648 823d cc6b 093d 7405 4c3b 03d0 563d
000003f0: 1b09 623d c69c d23c 04cc 633d ed72 e43c

height_layer.0.weight f4 [1, 1024]
-0.14078367 -0.08022895 -0.028413247 0.028394694 0.033222117 0.049734797 -0.08094351 0.032523748
-0.031132545 -0.060802735 0.024387527 -0.058882695 -0.04821754 -0.00519309 0.0018743102 -0.012544609
-0.04143519 0.024481995 0.19639032 -0.060457576 -0.005355018 0.046760507 0.015015426 0.031440858
-0.05060196 0.041600656 0.051728744 0.008691648 0.0009479441 -0.03244054 0.022022266 -0.05975076
-0.026154252 0.05099663 0.0113699185 -0.014682887 0.0013153823 0.060202453 -0.032971375 0.09179759
0.0008607453 -0.0028805516 -0.12436836 -0.0046721683 -0.11136356 -0.0015858572 -0.041538175 -0.0038780628
0.043705326 -0.0031415084 -0.04252269 -0.06332472 -0.08073562 0.029811682 -0.054523952 0.030422412
-0.07899889 -0.0033189703 0.023557127 0.014803808 -0.04481625 -0.059990875 -0.041006234 -0.031495117
0.0035048225 -0.06421636 -0.064463355 -0.05916423 -0.056532193 -0.051981423 -0.05212409 0.017902648
-0.0060922336 -0.03775986 0.0023146032 -0.043130584 -0.08023761 0.018452868 0.019858386 -0.045810558
0.008567546 -0.07704485 -0.0010586408 -0.05982517 -0.017080843 -0.0795587 -0.009748755 0.1727721
0.018352937 -0.050273724 0.009060008 0.03531234 0.026504189 -0.050832972 -0.040864397 -0.052815087
-0.051140267 -0.056791123 -0.023765678 -0.011494549 -0.005893278 -0.024796244 0.034918975 0.026082328
-0.045841355 -0.009197359 -0.083670884 -0.02463589 -0.076717086 -0.035484154 0.013909167 0.0108171245
-0.04391832 -0.05859849 -0.027342677 -0.103309795 0.040328015 -0.04299759 -0.030008571 -0.045926873
-0.034458995 -0.006672057 0.028957225 -0.0303926 0.0396523 0.018910218 0.060330708 -0.065951236
-0.08554067 -0.08686964 -0.0028972689 0.02457694 -0.043276526 -0.067953385 -0.007289357 -0.038677476
-0.06863042 0.002672845 -0.049081396 0.034922805 -0.0673979 -0.07620138 -0.0032338174 -0.03334937
-0.030213216 -0.034119964 0.017781917 0.0040522944 0.004160615 0.0012781007 -0.031197151 -0.0775148
-0.023288894 -0.030971732 -0.029524975 0.035380736 0.0055250297 0.022843374 -0.076930515 -0.032140512
-0.013348865 -0.010710904 0.048107866 -0.08546795 -0.030065767 0.0044707535 -0.005697318 -0.0019857835
0.12465358 0.0035225637 0.012439096 0.04832924 -0.013391887 0.014222971 -0.03996638 -0.055019766
-0.035451874 -0.08421641 -0.018472655 -0.056165777 -0.046608567 -0.07317085 -0.030497234 -0.0005521052
-0.052019596 -0.0064517264 -0.06059449 -0.07303097 0.013211382 -0.058180247 0.0042549837 -0.06483565
-0.0041736583 -0.053062897 0.009768197 -0.11021101 -0.03554842 0.026624357 -0.07551503 -0.115060486
-0.0022549392 -0.04102264 -0.007944299 -0.026823796 -0.08052639 0.023918727 0.0057321806 -0.038104095
0.01377505 0.010086354 -0.0031100535 -0.07801205 -0.025249945 -0.046782516 0.032952596 -0.056468554
-0.0114918845 -0.02467097 -0.0035021943 -0.04969883 -0.040653467 0.012026244 0.003788992 -0.049083836
-0.022467427 -0.019266298 -0.08467465 -0.0035633775 -0.06850337 -0.067822635 0.017031495 -0.08556011
-0.049875617 -0.007753176 -0.0013542871 0.014311637 0.043806616 -0.044225574 0.07966178 -0.038201697
-0.045257952 -0.05971985 0.0025950575 -0.07924893 0.00032494773 0.040140554 -0.007329624 -0.034779865
-0.06869452 -0.06077359 0.060419526 -0.069861025 -0.0135481525 0.14366315 0.007009597 0.004938966
00000000: 9829 10be 134f a4bd e6c2 e8bc fd9b e83c
00000010: ea13 083d b7b6 4b3d b6c5 a5bd 9f37 053d
00000020: ae09 ffbc 4a0c 79bd 5ac8 c73c fb2e 71bd
00000030: c17f 45bd cc2a aabb 6aab f53a e787 4dbc
00000040: f2b7 29bd 778e c83c 8b1a 493e 5da2 77bd
00000050: 2679 afbb f287 3f3d 4303 763c 21c8 003d
00000060: 0044 4fbd 7365 2a3d 85e1 533d 6a67 0e3c
00000070: 747f 783a 5fe0 04bd 0a68 b43c 37bd 74bd
00000080: 7141 d6bc d8e1 503d e548 3a3c 7e90 70bc
00000090: e868 ac3a d996 763d fe0c 07bd 6000 bc3d
000000a0: a4a3 613a a3c7 3cbb d7b4 febd fd18 99bb
000000b0: 9412 e4bd 8adc cfba ef23 2abd 1927 7ebb
000000c0: 5b04 333d c4e1 4dbb 462c 2ebd 64b0 81bd
000000d0: b758 a5bd a137 f43c 8254 5fbd 6c38 f93c
000000e0: 2cca a1bd 1583 59bb e0fa c03c ac8b 723c
000000f0: 3f91 37bd feb8 75bd 27f6 27bd 0601 01bd
00000100: 2ab1 653b de83 83bd 5d05 84bd 3156 72bd
00000110: 4d8e 67bd 79ea 54bd 1280 55bd 93a8 923c
00000120: 5ca1 c7bb 15aa 1abd 99b0 173b b2a9 30bd
00000130: 9e53 a4bd 782a 973c 0eae a23c daa3 3bbd
00000140: e45e 0c3c b1c9 9dbd 17c2 8aba 3d0b 75bd
00000150: 20ed 8bbc acef a2bd 3eb9 1fbc 2beb 303e
00000160: e658 963c d2eb 4dbd 6e70 143c aca3 103d
00000170: 501f d93c 3c36 50bd 6d61 27bd a254 58bd
00000180: 7578 51bd cf9d 68bd 3db0 c2bc a253 3cbc
00000190: 661c c1bb 7e21 cbbc 3307 0f3d 9baa d53c
000001a0: 25c4 3bbd 85b0 16bc a45b abbd 35d1 c9bc
000001b0: d91d 9dbd d557 11bd 46e3 633c 4f3a 313c
000001c0: b2e3 33bd f804 70bd c0fd dfbc 1694 d3bd
000001d0: fd2e 253d 3e1e 30bd 89d4 f5bc d11d 3cbd
000001e0: e024 0dbd 45a1 dabb b437 ed3c e7f9 f8bc
000001f0: 736a 223d 9ae9 9a3c 551d 773d 7111 87bd
00000200: f22f afbd b6e8 b1bd 1be0 3dbb 9455 c93c
00000210: ba42 31bd 252b 8bbd 8fdb eebb 466c 1ebd
00000220: 1b8e 8cbd e62a 2f3b 9309 49bd 370b 0f3d
00000230: e907 8abd 780f 9cbd 74ee 53bb 5999 08bd
00000240: b581 f7bc 60c1 0bbd 62ab 913c 1cc9 843b
00000250: c555 883b f185 a73a 2b91 ffbc 14c0 9ebd
00000260: 5ac8 bebc 6eb8 fdbc 5cde f1bc 64eb 103d
00000270: 4f0b b53b 0722 bb3c bf8d 9dbd c5a5 03bd
00000280: 33b5 5abc ca7c 2fbc c10c 453d d209 afbd
00000290: 7c4c f6bc 667f 923b 91b0 babb eb23 02bb
000002a0: 604a ff3d d0da 663b 5acd 4b3c e2f4 453d
000002b0: a569 5bbc 7707 693c c9b3 23bd 685c 61bd
000002c0: fc35 11bd a779 acbd f753 97bc 160e 66bd
000002d0: a0e8 3ebd 99da 95bd 56d5 f9bc 27bb 10ba
000002e0: 8012 55bd 0169 d3bb ee31 78bd 4391 95bd
000002f0: 8d74 583c 694e 6ebd 646d 8b3b 8ec8 84bd
00000300: 2fc3 88bb 7b58 59bd ca0a 203c 4fb6 e1bd
00000310: 389b 11bd 531b da3c a0a7 9abd d5a4 ebbd
00000320: 9ac7 13bb 5b07 28bd ce28 02bc 94bd dbbc
00000330: 05eb a4bd 35f1 c33c 04d5 bb3b 0a13 1cbd
00000340: bfb0 613c 3c41 253c 0ad2 4bbb c8c4 9fbd
00000350: f9d8 cebc 069f 3fbd 4df9 063d 924b 67bd
00000360: 7548 3cbc c61a cabc 1285 65bb 0091 4bbd
00000370: 4084 26bd b909 453c bd50 783b 220c 49bd
00000380: 9c0d b8bc 5bd4 9dbc e769 adbd 8e87 69bb
00000390: 7f4b 8cbd 98e6 8abd a285 8b3c 243a afbd
000003a0: 604a 4cbd 5b0e febb 5682 b1ba 5b7b 6a3c
000003b0: 916e 333d e025 35bd b725 a33d 6279 1cbd
000003c0: 6760 39bd cd9c 74bd d711 2a3b 434d a2bd
000003d0: bf5d aa39 6c6a 243d 582d f0bb 5575 0ebd
000003e0: b6af 8cbd baed 78bd 777a 773d 4c13 8fbd
000003f0: 12f9 5dbc 6f1c 133e c3b0 e53b 0dd7 a13b

range_layer.0.weight f4 [1, 1024]
-0.04028166 0.03618787 0.015688604 -0.0066175717 -0.014818173 -0.0040337457 0.099363014 -0.12535393
-0.15536013 -0.053644355 0.048985 -0.04464769 -0.049700893 -0.014507231 -0.0022398909 -0.05697878
-0.25701818 0.0256508 -0.35233563 -0.052018896 0.06695942 0.058645647 -0.04954124 -0.06106331
-0.0660325 -0.18643138 -0.009819919 0.0006270273 -0.044440173 -0.036103006 -0.008779133 -0.056967836
-0.030231517 0.05447888 -0.08318371 -0.021101931 -0.03273198 -0.004009356 -0.07006073 0.16531892
-0.024021572 -0.042007525 -0.033875946 -0.0020575451 0.10762492 -0.042596336 -0.06933498 -0.021417286
-0.018458923 -0.019579707 -0.026335707 -0.048387 -0.010076863 -0.024929157 -0.05684326 0.015819307
-0.03069711 -0.030156504 0.002664034 -0.008056506 -0.00023564008 -0.025201665 -0.023015477 0.010529896
0.011072405 0.005463383 -0.025357671 -0.15954916 -0.046769332 -0.053396255 -0.06460894 -0.34763277
-0.0067177294 -0.05053599 -0.05837218 -0.055703845 0.052884545 -0.02097762 0.021074425 -0.02855109
0.0010796423 -0.0423477 -0.001172545 -0.07995692 -0.028944595 -0.21906056 -0.023286853 0.20126921
-0.053057935 -0.062098537 0.015841853 0.04223925 0.009363655 -0.056940116 -0.041349992 -0.1583705
-0.061530374 -0.04990004 -0.048489124 -0.012668573 -0.007436516 0.09181465 -0.071910426 0.025126476
-0.0575688 -0.04021151 -0.028840715 -0.03708118 -0.030309377 -0.0012589933 -0.0011299411 -0.048742715
-0.0616494 -0.03577598 -0.06676116 0.014482222 0.045891404 -0.13576919 -0.03396992 -0.0523724
-0.07699878 0.0019498474 -0.04020732 0.0023126022 -0.0070878374 -0.0067596994 0.036197335 -0.052717246
-0.029025696 -0.027113624 0.05292019 0.009181877 -0.0073803836 -0.23148526 -0.0302989 -0.07795595
-0.03967019 -0.016873939 -0.0042790873 0.0089642955 -0.04828323 -0.014013478 -0.017086437 0.0054463893
-0.023078352 0.040878903 -0.036328383 -0.14931232 0.015016036 0.012464494 0.008875382 0.021696012
-0.06793037 -0.02387976 -0.04624848 -0.0067334683 0.0040357946 -0.0044245855 -0.105876505 -0.080346934
0.0020625954 -0.033195056 -0.13802475 0.0024139585 -0.05777164 0.005585544 -0.06785783 -0.010289211
0.17372999 0.059317023 0.03176843 0.051290467 -0.017743161 -0.0064556156 -0.01986069 -0.05532389
-0.082892805 -0.018681454 -0.042976342 -0.057102274 -0.07175126 -0.18052442 -0.037002712 -0.008942413
-0.04580198 0.033587582 -0.058466543 -0.041920457 -0.00670876 -0.26461473 -0.0015985551 -0.037634797
-0.0047505726 -0.06633721 0.028497342 0.0050692996 -0.08063845 -0.001706198 -0.04471747 -0.022775197
-0.010079486 -0.07259971 -0.0422718 -0.3178779 -0.04055938 -0.0109397285 0.0029092159 -0.057283975
-0.007944977 -0.015111366 0.03288447 -0.029103596 0.008826804 -0.058877673 -0.042960115 -0.0020225754
0.039506175 -0.05762486 -0.037865963 -0.06930209 -0.04517394 -0.011790048 -0.016561378 -0.03868926
0.015428424 0.0029867422 -0.07106565 0.023193486 -0.04179033 0.009065239 -0.07440659 -0.031856474
-0.013469046 0.018248055 0.04878681 -0.022448076 -0.009326275 -0.07469169 0.1581035 -0.065311804
-0.063970454 -0.041394427 0.00022929058 -0.03276563 -0.0054483544 -0.14522831 -0.08372972 0.008143545
-0.0451011 -0.012782363 -0.011922684 -0.034873344 -0.02526961 -0.39348406 0.04247202 0.007634673
00000000: 62fe 24bd bb39 143d 6385 803c 37d8 d8bb
00000010: ecc7 72bc 832d 84bb d67e cb3d c85c 00be
00000020: ba16 1fbe 2fba 5bbd 7fa4 483d 7fe0 36bd
00000030: 2a93 4bbd bdaf 6dbc 22cb 12bb 9562 69bd
00000040: e397 83be a021 d23c 5665 b4be c411 55bd
00000050: 0522 893d 6b36 703d c1eb 4abd 851d 7abd
00000060: 0c3c 87bd dee7 3ebe bae3 20bc 175f 243a
00000070: e606 36bd bfe0 13bd 5ad6 0fbc 1b57 69bd
00000080: 16a8 f7bc 3f25 5f3d 395c aabd f5dd acbc
00000090: f811 06bd ea60 83bb 007c 8fbd 5d49 293e
000000a0: e3c8 c4bc 1510 2cbd 81c1 0abd e1d7 06bb
000000b0: 746a dc3d 7f79 2ebd 7fff 8dbd 4e73 afbc
000000c0: 2b37 97bc 9f65 a0bc fbbd d7bc 7231 46bd
000000d0: 6d19 25bc 3b38 ccbc 7ad4 68bd 7e97 813c
000000e0: 8178 fbbc c60a f7bc 1397 2e3b 6fff 03bc
000000f0: 2716 77b9 b973 cebc f48a bcbc 9685 2c3c
00000100: 0869 353c 2e06 b33b e4ba cfbc db60 23be
00000110: 3391 3fbd 08b6 5abd b151 84bd ecfc b1be
00000120: 6620 dcbb d4fe 4ebd ab17 6fbd b729 64bd
00000130: 779d 583d 42d9 abbc 46a4 ac3c fae3 e9bc
00000140: c982 8d3a c874 2dbd 15b0 99ba 74c0 a3bd
00000150: 371d edbc 6951 60be 12c4 bebc 8419 4e3e
00000160: 4753 59bd 095b 7ebd c6c6 813c 1003 2d3d
00000170: 046a 193c 0a3a 69bd 9c5e 29bd e02b 22be
00000180: 4607 7cbd fc63 4cbd 889c 46bd d98f 4fbc
00000190: 05ae f3bb 5209 bc3d c645 93bd 0ad6 cd3c
000001a0: 43cd 6bbd d3b4 24bd 5d43 ecbc 6fe2 17bd
000001b0: 5f4b f8bc ce04 a5ba 881a 94ba 71a6 47bd
000001c0: 1584 7cbd d689 12bd 13ba 88bd d746 6d3c
000001d0: a0f8 3b3d 1407 0bbe 0b24 0bbd 7184 56bd
000001e0: 89b1 9dbd 0692 ff3a 6eb0 24bd 078f 173b
000001f0: 1741 e8bb 7880 ddbb a843 143d 0aee 57bd
00000200: 4cc7 edbc 641d debc d7c2 583d 956f 163c
00000210: 25d7 f1bb 790a 6dbe 6635 f8bc 5ea7 9fbd
00000220: 367d 22bd 373b 8abc 9637 8cbb fbde 123c
00000230: a3c4 45bd c998 65bc dbf8 8bbc a077 b23b
00000240: d00e bdbc a370 273d 12cd 14bd 54e5 18be
00000250: d205 763c e137 4c3c 0d6a 113c d6bb b13c
00000260: 141f 8bbd 7d9f c3bc 0c6f 3dbd 6da4 dcbb
00000270: b33e 843b 1dfc 90bb c8d5 d8bd ef8c a4bd
00000280: 9c2c 073b 8af7 07bd 5c56 0dbe 8133 1e3b
00000290: f5a1 6cbd f006 b73b 0cf9 8abd 1494 28bc
000002a0: 46e6 313e 68f6 723d 9d1f 023d f415 523d
000002b0: 1b5a 91bc a189 d3bb e3b2 a2bc 4e9b 62bd
000002c0: b4c3 a9bd d909 99bc f607 30bd 13e4 69bd
000002d0: 53f2 92bd 65db 38be 2890 17bd 3383 12bc
000002e0: db9a 3bbd 2293 093d 9d7a 6fbd c9b4 2bbd
000002f0: 28d5 dbbb 957b 87be 9c86 d1ba f226 1abd
00000300: b1aa 9bbb cedb 87bd 4273 e93c 5e1c a63b
00000310: c625 a5bd 81a2 dfba aa29 37bd 0d93 babc
00000320: 6e24 25bc 28af 94bd 3225 2dbd e4c0 a2be
00000330: 9821 26bd 8c3c 33bc 8ba8 3e3b 9aa2 6abd
00000340: a62b 02bc aa95 77bc deb1 063d aa6a eebc
00000350: 4d9e 103c b729 71bd f2f6 2fbd 2f8d 04bb
00000360: 3ad1 213d 0c08 6cbd 5719 1bbd 41ee 8dbd
00000370: 4f08 39bd 0c2b 41bc baab 87bc a178 1ebd
00000380: 80c7 7c3c 38bd 433b de8a 91bd 4400 be3c
00000390: 562c 2bbd 5e86 143c 7b62 98bd ef7b 02bd
000003a0: 46ad 5cbc f27c 953c aed4 473d 07e5 b7bc
000003b0: 3ccd 18bc f5f7 98bd e2e5 213e 32c2 85bd
000003c0: f102 83bd 348d 29bd b96d 7039 4135 06bd
000003d0: 1c88 b2bb bbb6 14be 7d7a abbd 816c 053c
000003e0: eebb 38bd 1e6d 51bc 5c57 43bc 5ad7 0ebd
000003f0: 3702 cfbc be76 c9be 24f7 2d3d 472c fa3b
