projection/weight/fea_16.pt (torch, 3655 bytes, 7 tensors)

layers.0.weight f4 [16, 2]
0	0x3fe26e48	1.7689905
1	0xbda2177c	-0.079146355
2	0xbec238e3	-0.37934026
3	0x3ed17d16	0.40915745
4	0x3fbfb41a	1.4976838
5	0xbede3508	-0.43399835
6	0xbf9aae5e	-1.2084463
7	0x3df8314a	0.12118776
8	0xbd5ebfc9	-0.05438212
9	0xbf813bf3	-1.009642
10	0xbfca80a4	-1.5820508
11	0x3f13276f	0.57482046
12	0xbfd8b951	-1.6931554
13	0xbda51a59	-0.08061666
14	0xbff1a1f7	-1.8877553
15	0x3ca79c66	0.020460319
16	0x3f2e8c00	0.68182373
17	0xbef9f61e	-0.48820585
18	0x3c74faa8	0.014952339
19	0xbf4148ad	-0.7550152
20	0x3e75c874	0.24002248
21	0x3f201213	0.6252758
22	0xbc15f424	-0.009152446
23	0xbf0199d9	-0.5062538
24	0x3fc1296f	1.509077
25	0x3ec498ec	0.3839792
26	0xbb4d5b2b	-0.0031334858
27	0xbeffc2e0	-0.49953365
28	0x3c92e5de	0.017931875
29	0x40092c85	2.1433423
30	0x3fbc5a9e	1.4715154
31	0xbec5720e	-0.3856358

layers.1.weight f4 [16]
0	0x3f862f57	1.0483197
1	0x3fb92bdd	1.4466511
2	0x3fa983f8	1.3243399
3	0x3fca2e67	1.5795411
4	0x3faf8f6d	1.3715645
5	0x3ffa553f	1.9557265
6	0x3f9bd344	1.2173848
7	0x3f9cf240	1.2261429
8	0x3e3364bd	0.17518897
9	0x3fcbc3c6	1.591912
10	0x3fadd196	1.3579586
11	0x3f92dc8e	1.1473558
12	0x3fc4484c	1.5334563
13	0x3fbe74bb	1.4879373
14	0x3faf98bd	1.3718487
15	0x3f88b1b0	1.0679226

layers.1.bias f4 [16]
0	0xbdba522c	-0.09097704
1	0xbf16a6aa	-0.5884806
2	0x3f35b4b5	0.7097886
3	0xc0151092	-2.3291364
4	0xbf942927	-1.1575059
5	0xc0077675	-2.116605
6	0x3f2c7786	0.6736988
7	0x3fc05cd8	1.5028334
8	0xbee31e7b	-0.44359192
9	0xbf2ecf30	-0.68284893
10	0xc00b1297	-2.1730096
11	0xbf938d79	-1.1527549
12	0xbff66f37	-1.925269
13	0xbf409fcd	-0.75243837
14	0x3f29e11d	0.6635912
15	0x3e5c4022	0.2150884

layers.1.running_mean f4 [16]
0	0x3f58879f	0.8458194
1	0x3c7928f3	0.015207517
2	0x3f083c5b	0.53217095
3	0xbf0b4a49	-0.54410225
4	0xbf088d0c	-0.5334022
5	0xbf00efcd	-0.50365907
6	0xbf634e12	-0.88791
7	0xbf6f405a	-0.9345757
8	0x3dc5a465	0.096504964
9	0xbebdf254	-0.37098944
10	0x3ede05df	0.43363854
11	0xbe844534	-0.25834048
12	0x3f72a79c	0.94787
13	0xbe81006d	-0.25195637
14	0x3f8ab2f4	1.0835862
15	0x3f0b1709	0.54332024

layers.1.running_var f4 [16]
0	0x3e857af7	0.26070377
1	0x3cd34d27	0.025793625
2	0x3e4eb4ed	0.20186205
3	0x3dfb0e65	0.12258605
4	0x3dae0d3d	0.08498619
5	0x3e70c0fc	0.23511118
6	0x3e74c53f	0.23903368
7	0x3e97bbfb	0.29635605
8	0x3d6ebe09	0.0582867
9	0x3d420e52	0.04737694
10	0x3d1906e7	0.0373601
11	0x3cae875d	0.02130478
12	0x3e4ec789	0.20193304
13	0x3ca9ddd1	0.020735653
14	0x3ec3790d	0.38178292
15	0x3e44c349	0.1921512

height_layer.0.weight f4 [1, 16]
0	0x3eeb8163	0.45997152
1	0xbe9285c1	-0.2861767
2	0xbedc1a2b	-0.42988715
3	0xbf4ee5e8	-0.8081956
4	0xbf192503	-0.598221
5	0xbed89e28	-0.42308164
6	0xbed8ff9b	-0.42382511
7	0xbf6a693f	-0.9156684
8	0x3e0f69da	0.14005223
9	0xbe998626	-0.2998516
10	0x3fb48673	1.4103531
11	0xbec6788c	-0.38763845
12	0x3ec3b4e6	0.38223952
13	0xbf7716ac	-0.9651897
14	0x3f5aa6c9	0.85410744
15	0xbeee2e13	-0.46519527

range_layer.0.weight f4 [1, 16]
0	0xbf2bce7b	-0.6711194
1	0x3f147d9b	0.5800416
2	0xbf24d1f8	-0.64382887
3	0xbffef86b	-1.9919561
4	0xbf12705b	-0.5720269
5	0xbf4b0bff	-0.7931518
6	0xbf28e098	-0.659677
7	0xbf1816f5	-0.5941003
8	0xbe9597a0	-0.29217243
9	0xbf416d69	-0.7555757
10	0xbd90bf0c	-0.07067689
11	0xbf37e50a	-0.7183386
12	0xbf9a5802	-1.2058108
13	0xbe9eadce	-0.30991977
14	0x3f43279f	0.7623233
15	0xbed7fe7a	-0.42186338
