projection/weight/fea_32.pt (torch, 4167 bytes, 7 tensors)

layers.0.weight f4 [32, 2]
00000000: 138e 92bf 70dd 2fbe 2b5b cfbf 297f 0dbe
00000010: 3e6c 933f d54d e9be 1343 84bf eb6a 283f
00000020: 4e5a 9bbf fd70 2b3f 42a9 f03d ac5c 9cbf
00000030: 7ae4 263f f3d5 363f 9e1a 65bf 3db1 673f
00000040: 4b17 c33d 8284 55bf 0120 d93e 1e30 52bf
00000050: 06ae b5bf 7218 eebe ec65 0a3b f5bd 79bf
00000060: 1dcd e73c 82a7 8fbf 30b4 43bf e608 763f
00000070: 9cc1 9c3f a9b6 783c 028b ddbd 3e7e 9f3f
00000080: eb91 883f d8e3 ef3e 94b9 1d3f 8a02 5a3f
00000090: a113 cfbf edf9 f6bd 6a6c 24bf 47fd 003f
000000a0: a0a2 3ebc b8de 45bf 6aeb 10bf 645a 983f
000000b0: 7f16 b73f 4447 8ebe 4574 393f 4521 df3e
000000c0: bfd4 b6bf 058a 92be bcd6 d5bf 8251 b4be
000000d0: 0b14 c43f b37f cdbc d8e5 b03e 052b b03f
000000e0: a89b a6be 0fe0 8a3f 9a85 ee3e 9029 aa3f
000000f0: cc51 81be c951 983f 33f5 42bd 4836 3cbf
-1.1449608 -0.17174315 -1.6199697 -0.13818039 1.1517408 -0.45567194 -1.033297 0.65788144
-1.2136934 0.6696928 0.11751033 -1.2215781 0.6519238 0.7142021 -0.8949374 0.9050482
0.09525927 -0.83405316 0.4240723 -0.8210467 -1.4193733 -0.46503025 0.002111788 -0.97555476
0.028296048 -1.1222994 -0.7644682 0.9610733 1.2246585 0.015180268 -0.10817529 1.2460401
1.0669531 0.46853518 0.61611295 0.85160124 -1.6177865 -0.12059388 -0.64227927 0.5038647
-0.0116354525 -0.77292967 -0.56609213 1.1902585 1.430374 -0.27788746 0.7244304 0.4358007
-1.4283675 -0.28620926 -1.6706157 -0.35218436 1.5318617 -0.025085306 0.34550357 1.3763129
-0.3254063 1.0849627 0.46586305 1.3293934 -0.2525772 1.1899959 -0.04759712 -0.73520327

layers.1.weight f4 [32]
00000000: 4146 df3f 5334 0240 15ea 643f 2ad3 b33f
00000010: 37d8 903f 6060 af3f cc0e 4e3f a98e 853f
00000020: 578f 8c3f 5ffe 713f bdb1 f13e 82c4 4c3f
00000030: 9585 913f b3f1 883f 0374 973f c926 8f3f
00000040: 642d 6b3f 42bc a03f c005 6f3f 2253 e03e
00000050: 36e5 653f 0e31 663f 7be4 813f cc70 4e3f
00000060: ec9a 7a3f 3637 943f 8e62 e43f f4b3 7d3f
00000070: 0101 643f 6db7 af3f 58fc 843f a7e6 963f
1.7443315 2.0344436 0.8941968 1.4048817 1.1315984 1.3701286 0.8049133 1.0434161
1.0981244 0.94528764 0.47205916 0.7998735 1.1368891 1.0698761 1.1832279 1.1183711
0.91866136 1.2557452 0.9336815 0.43813425 0.89802873 0.899186 1.0147852 0.80640864
0.9789264 1.1579349 1.7842577 0.9910271 0.8906403 1.3727852 1.0389509 1.178914

layers.1.bias f4 [32]
00000000: 7d02 96bf f616 2bc0 050b 183f e5ca 1ec0
00000010: d193 96bf 8068 a23e 2aed f7be fc1e c2bf
00000020: 8857 72bf 7009 e73d db25 413f f5ef 56bf
00000030: 3f06 c5be 55d7 21bf 8f85 bbbf 8146 98be
00000040: 1e80 20bf b839 ebbf f50c 8f3d 8b6b 323f
00000050: f0ba 6dbf bae1 febd d910 923e 25ba 59bf
00000060: e95d 643f 5825 143f ce0d 24c0 841e a2bf
00000070: c318 70bf 4a6d 1bc0 13f1 aebf 2a82 77bf
-1.1719509 -2.6732764 0.59391814 -2.4811337 -1.176386 0.31720352 -0.4842313 -1.5165706
-0.9466481 0.11281097 0.7544839 -0.83959895 -0.38481328 -0.63219196 -1.4650134 -0.2974129
-0.6269549 -1.8376989 0.06984893 0.6969535 -0.9286337 -0.12445398 0.2852848 -0.8504966
0.89205796 0.5786948 -2.5633426 -1.2665563 -0.93787783 -2.4285455 -1.366732 -0.9668299

layers.1.running_mean f4 [32]
00000000: a88b 28bf 030d 61bf f421 b23e 6c1c 40be
00000010: 1037 8bbe 2e61 0dbf dee2 2e3f 0b37 a83b
00000020: f234 bdbe 9e6b 4bbe 6438 71bf f743 f9be
00000030: 0c15 0cbf 84ac c93d 7fb3 1e3f 67b6 113f
00000040: f88e 443f b9e4 3b3f 0e85 5ebf 0c79 8dbd
00000050: 9de6 c8be 52e8 9f3e 687e 133f 1786 143f
00000060: 2f7a 5bbf 5977 81bf e7db 403f dc6e 5c3f
00000070: ce8b c23e 11d5 653f 3112 f03e 3c73 c8be
-0.658381 -0.8791048 0.3479153 -0.18760842 -0.27190447 -0.5522641 0.6831492 0.0051335148
-0.36954457 -0.19865271 -0.9422667 -0.48684666 -0.54719615 0.09847358 0.6199264 0.5691895
0.76780653 0.7339588 -0.86921775 -0.069078535 -0.39238444 0.31231934 0.57614756 0.58017105
-0.8573331 -1.0114547 0.75335544 0.8610666 0.37997288 0.8977824 0.4688888 -0.39150417

layers.1.running_var f4 [32]
00000000: a542 e33d 9251 603e 6f39 033e aab0 003e
00000010: 5dac 243e 50c2 003e 94e2 9d3d b22f 0b3e
00000020: 010f 713d ddaf 923d b2a7 3c3e 8b72 a23d
00000030: b43b d73d a299 013e 01e5 fe3d 30b9 053e
00000040: a06e e53d 19b5 ba3d e25b 5f3e 0bd5 643d
00000050: 48ee 4b3d 712a 153e 5e08 353e b44f 713d
00000060: d0bf 333e 8ade 763e 4881 473e b111 2b3e
00000070: 6000 dc3d 7052 283e f777 fd3d c212 393d
0.11096696 0.21906117 0.12814878 0.12567392 0.16081376 0.12574124 0.07709232 0.13592413
0.0588522 0.071624495 0.18423346 0.079320036 0.10509434 0.12656263 0.12446023 0.13058925
0.11202741 0.09116573 0.21812394 0.055867236 0.04978779 0.14566971 0.17678973 0.0589139
0.1755364 0.2410833 0.1948291 0.16705967 0.10742259 0.16437697 0.12376397 0.045183904

height_layer.0.weight f4 [1, 32]
00000000: 46b2 43bf 6584 debe 446b bdbd 35d0 d6be
00000010: af78 44be 8df3 0cbf 2e8f 913d f0a8 80be
00000020: dae0 d2be 9730 dbbe 57de ebbe 98b3 d7be
00000030: 9788 d8be 1069 dabe f577 a5be eb69 253f
00000040: 3da5 053f 0aa0 ae3e 9e6f 9abe ae39 27bd
00000050: 8761 19bf b80b 8e3e a761 f1bc b3d3 9a3e
00000060: b124 05bf dea4 e7be 8746 bdbc 9138 b93e
00000070: fe98 fa3d 0549 f63f ef45 8fbe d833 05bf
-0.764439 -0.43460384 -0.09248975 -0.41955724 -0.19186662 -0.5505913 0.071073875 -0.2512889
-0.41187173 -0.4281051 -0.4606807 -0.42129207 -0.4229171 -0.4265828 -0.32318082 0.64614743
0.5220526 0.34106475 -0.30163282 -0.040826492 -0.5991444 0.27743316 -0.02946551 0.3023964
-0.5200911 -0.4524297 -0.02310492 0.3617597 0.12236212 1.9241034 -0.27983043 -0.5203223

range_layer.0.weight f4 [1, 32]
00000000: ae16 86bd 80bf b9bf 0119 29bf 0fd7 6fbf
00000010: f671 4cbf f017 f1be 6750 e33e 0589 76bf
00000020: bb63 02bf e58d 5ebe 8275 3bbe 767b e5be
00000030: 7b62 c9be b49a af3e ea6a 83bf 785b ca3e
00000040: 617e a2be f795 55bf 0093 bfbe a5fd f53e
00000050: f8e7 a6be 7c15 c13e b330 16bf c50a dfbe
00000060: d048 e8be 967c 15bf 65e4 bcbf e6a4 533f
00000070: 54d8 e93e 958d 1fbf 347f 2a3f efdd ddbe
-0.065472946 -1.4511566 -0.6605378 -0.9368753 -0.7986139 -0.47088575 0.4439728 -0.96302825
-0.50933427 -0.21733816 -0.18306544 -0.44820756 -0.39332947 0.34297717 -1.0267003 0.3952291
-0.31737044 -0.83431953 -0.3741684 0.48045078 -0.32598853 0.37711704 -0.5866806 -0.43562904
-0.45368052 -0.5839323 -1.47572 0.8267349 0.45672858 -0.6232541 0.66600347 -0.43333384
