projection/weight/fea_64.pt (torch, 5191 bytes, 7 tensors)

layers.0.weight f4 [64, 2]
0	0x3f8ab0a0	1.0835152
1	0x3d2c119c	0.04200898
2	0xbfdd5698	-1.7292051
3	0x3de03025	0.10946683
4	0xbfc0d5c1	-1.5065233
5	0x3f28d4aa	0.659495
6	0xbf8481bf	-1.0352095
7	0xbeae4a63	-0.34041128
8	0xbfbebfc2	-1.490227
9	0x3ea88bd8	0.32919192
10	0x3f155a64	0.5834105
11	0x3f56f065	0.8396056
12	0x3f9a4984	1.2053685
13	0xbdaf2077	-0.08551114
14	0x3f4b70ed	0.79469186
15	0x3c32a19e	0.01090279
16	0xbfbd9dd6	-1.4813793
17	0xbe87df75	-0.26537672
18	0x3f3ae2cc	0.73002315
19	0x3e2fccf8	0.17168033
20	0x3d48990d	0.048974086
21	0xbf2110e1	-0.6291638
22	0xbc5b2d37	-0.013377479
23	0xbf2dd33f	-0.6790046
24	0x3f319af4	0.69377065
25	0xbd7138ae	-0.058891945
26	0xbf51354b	-0.81721944
27	0x3f021d04	0.50825524
28	0x3f1a0860	0.6016903
29	0xbe7adbe8	-0.2449795
30	0xbfbaf36b	-1.4605535
31	0x3e5abbe7	0.21360742
32	0xbf3d54f2	-0.7395774
33	0xbd637e0f	-0.05554014
34	0x3d9af1c8	0.07565647
35	0xbf77cb6b	-0.96794766
36	0x3f15d3cd	0.5852631
37	0xbf400429	-0.7500635
38	0x3f3127fd	0.6920164
39	0x3e9b57f9	0.30340555
40	0x3f82955d	1.0201832
41	0xbf57a383	-0.84233874
42	0x3f6aefd1	0.9177218
43	0x3d887bb1	0.06664217
44	0x3ddbe9ef	0.10737979
45	0x3fed63c4	1.8546071
46	0x3fa3630f	1.2764605
47	0x3f3f22b8	0.7466235
48	0xbf2bf802	-0.67175305
49	0xbf173b91	-0.59075266
50	0xbf65fb6f	-0.8983678
51	0xbf0401ca	-0.5156523
52	0xbf12957c	-0.57259345
53	0xbf1de649	-0.6167951
54	0x3f8f2924	1.118443
55	0xbe753053	-0.23944215
56	0xbf27429e	-0.65336025
57	0x3f5ffbc4	0.8749354
58	0xbfafd2f8	-1.3736258
59	0xbd926b14	-0.0714933
60	0xbfa201a7	-1.2656754
61	0xbc0c3433	-0.008557367
62	0x3d8fc6f2	0.07020368
63	0xbf647f9c	-0.89257216
64	0x3f3435a8	0.7039437
65	0x3bf90678	0.007599648
66	0xbfd88b7f	-1.6917571
67	0xbeeaa46a	-0.45828563
68	0xbbb7982e	-0.005602858
69	0x3fbf68d2	1.4953864
70	0x3fcee34b	1.6163114
71	0xbdf73350	-0.12070334
72	0xbeb16f40	-0.3465519
73	0x3f2e74da	0.6814705
74	0xbf8f0d01	-1.1175843
75	0xbdd12ece	-0.102140054
76	0xbf8c107e	-1.0942533
77	0xbe92f937	-0.2870576
78	0x3cfe4cb4	0.031042434
79	0xbf78efda	-0.97240984
80	0xbf81b0c7	-1.0132073
81	0x3f496b16	0.78679025
82	0xbdc93a37	-0.09825557
83	0xbf980c4d	-1.1878754
84	0x3fcf3c12	1.6190207
85	0x3da34a15	0.079731144
86	0xbe4351fc	-0.19074243
87	0x3f5001e5	0.8125289
88	0x3ea54173	0.32276496
89	0x3f7040c0	0.938488
90	0xbf2a6a9d	-0.6656893
91	0x3ebc995a	0.36835748
92	0x3ec5592c	0.38544595
93	0x3f2f4a3b	0.6847264
94	0xbf5cce9d	-0.86252767
95	0xbe8e7b8b	-0.2782863
96	0x3eb9f6e4	0.36321175
97	0x3f875ecb	1.0575804
98	0x3f8fc44d	1.1231781
99	0xbd86aef0	-0.065763354
100	0xbf977d59	-1.1835128
101	0xbd6f2db1	-0.058393184
102	0x3e848c5c	0.25888336
103	0xbf940f63	-1.1567196
104	0x3eb8c043	0.36084184
105	0x3ebfd5e4	0.37467873
106	0xbf360a6a	-0.7110964
107	0x3f6c88e5	0.92396384
108	0xbf307698	-0.6893096
109	0x3f37429d	0.7158602
110	0x3f77fa37	0.9686617
111	0xbe0c5d5c	-0.13707489
112	0xbf69acb2	-0.9127914
113	0x3f37c406	0.71783483
114	0xbed404d3	-0.4140993
115	0x3f9de863	1.2336544
116	0x3b1e80e5	0.0024185714
117	0xbf0d9a1f	-0.55313295
118	0xbea4e699	-0.32207182
119	0x3f88f840	1.070076
120	0xbd180e58	-0.037123054
121	0xbf872ff3	-1.0561508
122	0x3dab81cc	0.08374366
123	0xbf87f862	-1.0622675
124	0x3d64ffd0	0.055908024
125	0xbf8b3bcd	-1.0877625
126	0xbef2a042	-0.47387892
127	0x3f82dc36	1.0223453

layers.1.weight f4 [64]
0	0x3f56a8e1	0.8385144
1	0x3f8b9c12	1.0907004
2	0x3f4c2637	0.7974581
3	0x3f66789f	0.90027803
4	0x3f9c791a	1.2224457
5	0x3f702b41	0.93816
6	0x3f3d59e0	0.73965263
7	0x3f86d5ec	1.0534034
8	0x3f9cd0b0	1.2251186
9	0x3f4f77c8	0.81042147
10	0x3f0a2302	0.5395967
11	0x3f85d8a1	1.0456735
12	0x3e998ed0	0.2999177
13	0x3f4ef8e3	0.8084852
14	0x3f0b0981	0.54311377
15	0x3f860218	1.0469389
16	0x3fb19b43	1.3875507
17	0x3f8a54ee	1.0807168
18	0x3f27eb0b	0.6559302
19	0x3f7f1726	0.99644697
20	0x3f2178b9	0.63074833
21	0x3f72d73b	0.94859666
22	0x3f8cbdb8	1.0995398
23	0x3fa340e9	1.2754184
24	0x3f0e759e	0.5564822
25	0x3edac129	0.42725495
26	0x3f1157fb	0.5677487
27	0x3f31c0cc	0.6943481
28	0x3f34acbf	0.7057609
29	0x3f91fdc5	1.1405569
30	0x3f95fe28	1.1718187
31	0x3f890a73	1.0706314
32	0x3e82ebf6	0.2557065
33	0x3f3e5fd6	0.74364984
34	0x3f6504a7	0.89460224
35	0x3f8c6600	1.0968628
36	0x3f6ca60b	0.9244086
37	0x3f8fd5eb	1.1237158
38	0x3f8a966a	1.0827153
39	0x3f92613c	1.1435924
40	0x3f770c68	0.96503305
41	0x3f80bd0a	1.005769
42	0x3f990c83	1.1956943
43	0x3f4c0e7a	0.7970959
44	0x3f535157	0.8254599
45	0x3e434d61	0.19072486
46	0x3f988b5c	1.1917529
47	0x3f3a9305	0.72880584
48	0x3f9bca38	1.2171087
49	0x3f96bec1	1.1776963
50	0x3fa678b5	1.3005587
51	0x3f7afd98	0.98043203
52	0x3f452196	0.77004373
53	0x3f76d015	0.9641126
54	0x3f3ef29a	0.7458893
55	0x3f145a0c	0.579499
56	0x3f51e517	0.8199019
57	0x3f432934	0.76234746
58	0x3f28bd54	0.6591389
59	0x3f58f480	0.8474808
60	0x3f5d6c7e	0.8649367
61	0x3f82a8c3	1.0207752
62	0x3f430970	0.76186275
63	0x3f71b0e6	0.9441055

layers.1.bias f4 [64]
0	0xbf8d853d	-1.1056286
1	0xbfd69726	-1.6764877
2	0xbf2d2884	-0.67639947
3	0x3f1fda8f	0.6244287
4	0xbf1fa6bc	-0.6236379
5	0xbf46f736	-0.77720964
6	0xbf211119	-0.62916714
7	0xbfcaf53e	-1.5856092
8	0x3ecba301	0.397728
9	0xbf8b98d8	-1.0906019
10	0xbf1a0b11	-0.60173136
11	0xbf905401	-1.1275636
12	0xbf3c958b	-0.73665684
13	0xbf5c07b2	-0.8594924
14	0xbf276145	-0.65382797
15	0xbfc36087	-1.5263833
16	0xbfe01656	-1.7506816
17	0xbea68972	-0.32526737
18	0x3e9d9f6d	0.30785695
19	0xbf33593c	-0.70058036
20	0x3f06105a	0.523687
21	0xbfbe84f7	-1.4884328
22	0xbed3e59a	-0.4138611
23	0xbfacde76	-1.350539
24	0x3d8319e2	0.06401421
25	0x3ee68627	0.45024225
26	0x3e51423c	0.20435423
27	0xbf295acb	-0.66154164
28	0xbf9194a3	-1.1373485
29	0xbf990066	-1.1953247
30	0xbfdfbef0	-1.7480145
31	0xbf7a86ab	-0.97861737
32	0xbf1e18db	-0.61756676
33	0x3f433be8	0.76263285
34	0xbf9b4cb1	-1.2132779
35	0x3dfeb391	0.12436593
36	0xbfce6076	-1.6123188
37	0xbf731f4a	-0.9496962
38	0xbeb7104f	-0.3575463
39	0xbf41de2e	-0.75729644
40	0xbcfef3d0	-0.031122118
41	0x3ec9dc3d	0.3942584
42	0xbfe15ff1	-1.7607404
43	0xbf860761	-1.0471002
44	0xbf8237b1	-1.0173246
45	0xbf366e0f	-0.71261686
46	0xbffaf445	-1.9605795
47	0xbed53ffb	-0.41650376
48	0xc00c0467	-2.1877687
49	0xbfd6973c	-1.6764903
50	0xbfee3f92	-1.861315
51	0x3f11091a	0.5665451
52	0xbf88e579	-1.069503
53	0xbf38a7bb	-0.72130936
54	0xbf8c42bc	-1.0957866
55	0xbf3a3f4e	-0.72752845
56	0xbf852a20	-1.040348
57	0xbe98e692	-0.2986341
58	0xbf36a99d	-0.7135256
59	0xbf1244bc	-0.5713613
60	0xbf52c525	-0.8233207
61	0x3e8081d2	0.25099045
62	0xbf504d0f	-0.8136758
63	0xbf85b57a	-1.0446007

layers.1.running_mean f4 [64]
0	0x3f102d6c	0.5631931
1	0xbf4f83d6	-0.8106054
2	0xbed95418	-0.4244697
3	0xbf302488	-0.6880574
4	0xbf14cec7	-0.5812802
5	0x3f3616a2	0.71128285
6	0x3f0f7585	0.56038696
7	0x3ece6325	0.40310016
8	0xbf5fb50a	-0.8738562
9	0x3ee6f1e2	0.45106417
10	0xbe945495	-0.2897078
11	0xbeb10ddb	-0.34580883
12	0x3ea2b247	0.3177664
13	0xbe1ec856	-0.1550611
14	0x3e37021d	0.178719
15	0xbf1fc7fe	-0.6241454
16	0xbecbb1b2	-0.39784008
17	0xbee41fd4	-0.44555533
18	0xbda762b1	-0.08173121
19	0x3efee405	0.4978334
20	0x3db7d653	0.08976426
21	0x3efc2cb0	0.49252844
22	0x3f7ae100	0.9799957
23	0x3f817e2c	1.011663
24	0xbf2196a9	-0.63120514
25	0xbf35048c	-0.70710063
26	0xbf183709	-0.59458977
27	0x3ee14f49	0.44005802
28	0x3de126cf	0.1099373
29	0xbf391d16	-0.72310007
30	0xbf233b8d	-0.6376274
31	0xbed23d3f	-0.41062352
32	0x3eb64e3d	0.35606566
33	0xbf89a957	-1.0754803
34	0x3f3e7f58	0.7441306
35	0x3f3f9a8c	0.74845195
36	0x3e2add75	0.16686042
37	0xbf1c3b15	-0.6102765
38	0xbf30e297	-0.6909575
39	0xbef0b30c	-0.47011602
40	0xbde96c50	-0.11397612
41	0xbf2476e6	-0.64243925
42	0x3f599aa6	0.850016
43	0x3e9ef2b9	0.31044558
44	0x3f215716	0.6302351
45	0xbe18bc25	-0.14915521
46	0x3f08ecd8	0.53486395
47	0xbf12146d	-0.5706242
48	0x3f35bf96	0.7099546
49	0x3f077488	0.5291219
50	0xbf1f1562	-0.62142
51	0xbee57b45	-0.4482061
52	0x3ebc43af	0.36770388
53	0x3dd87d6b	0.105707966
54	0x3c4ebcea	0.012618283
55	0x3ed516aa	0.41618854
56	0xbdc92a36	-0.09822504
57	0x3ed1682d	0.40899792
58	0xbe8cd1f0	-0.2750392
59	0x3ebf25cc	0.37333524
60	0xbf0bca79	-0.54605824
61	0xbefa31ba	-0.48866063
62	0xbf03e969	-0.5152803
63	0x3e8c0e9c	0.27354896

layers.1.running_var f4 [64]
0	0x3dc928ee	0.0982226
1	0x3e806373	0.25075874
2	0x3e674ba7	0.22587453
3	0x3dcb16f1	0.09916485
4	0x3e473751	0.19454695
5	0x3db28422	0.087166086
6	0x3df9c53d	0.12195823
7	0x3d582154	0.05276616
8	0x3e41b52d	0.1891677
9	0x3d406a64	0.046976462
10	0x3d07fac7	0.033198144
11	0x3d1d7929	0.038445625
12	0x3d25de7c	0.04049538
13	0x3d9e61e2	0.077335134
14	0x3d106117	0.035248842
15	0x3e3a5bfa	0.18199149
16	0x3d3c36a7	0.045950558
17	0x3da0ed88	0.078578055
18	0x3d9aaeb3	0.075528525
19	0x3d43426d	0.04767077
20	0x3e15a030	0.14611888
21	0x3d90d8a8	0.07072574
22	0x3e9344eb	0.28763518
23	0x3e3ae905	0.18252952
24	0x3d88bb34	0.06676331
25	0x3db76b87	0.08956056
26	0x3d71ff77	0.05908152
27	0x3ddfca81	0.109272964
28	0x3dcbc2aa	0.099492386
29	0x3e21d5fc	0.15804285
30	0x3e09074e	0.13381693
31	0x3d88d91d	0.06682036
32	0x3d298f79	0.04139659
33	0x3e835a94	0.25655043
34	0x3e3ee3e9	0.18641628
35	0x3e60ae8f	0.21941589
36	0x3d47ae2f	0.0487501
37	0x3dd7743b	0.10520216
38	0x3ddae537	0.106882505
39	0x3da196f9	0.07890124
40	0x3e0caed2	0.13738564
41	0x3df281a2	0.11841132
42	0x3e60c47a	0.2194995
43	0x3d6ded74	0.05808778
44	0x3da820c7	0.08209377
45	0x3d45fdb7	0.048337664
46	0x3d52e074	0.051483586
47	0x3d8c747b	0.068581544
48	0x3dd57cf4	0.104242235
49	0x3dd885af	0.10572373
50	0x3df03607	0.11729055
51	0x3defec82	0.11715032
52	0x3cb8e7dc	0.022571497
53	0x3de8503b	0.11343428
54	0x3da8d092	0.08242907
55	0x3da3b645	0.079937495
56	0x3de68f6e	0.11257826
57	0x3e109c07	0.1412202
58	0x3cd0ed74	0.025503851
59	0x3dd54649	0.104137965
60	0x3dbea7a0	0.09309316
61	0x3dc1da92	0.09465517
62	0x3dca885b	0.09889289
63	0x3dd8e874	0.10591212

height_layer.0.weight f4 [1, 64]
0	0xbe2aacf8	-0.16667545
1	0xbea8ecc5	-0.3299314
2	0xbde24532	-0.11048354
3	0xbec94d1b	-0.3931664
4	0xbdf018f5	-0.1172351
5	0x3d7ed4a1	0.062214497
6	0xbc4ebf70	-0.012618884
7	0xbe107af4	-0.14109403
8	0xbe800156	-0.2500102
9	0x3be40eeb	0.006959786
10	0xbe4195c6	-0.1890479
11	0xbe9a07d7	-0.30084106
12	0x3e832169	0.25611427
13	0xbd848523	-0.06470706
14	0x3e93d71d	0.28875056
15	0xbebfe5af	-0.37479922
16	0xbed0a785	-0.40752807
17	0xbebbbce0	-0.36667538
18	0xbe98ff42	-0.29882246
19	0x3eb46e83	0.35240564
20	0xbe6b516b	-0.22980277
21	0xbe67ea64	-0.22648007
22	0x3ef1b62d	0.47209302
23	0x3eba4b6e	0.36385673
24	0x3d64a91f	0.05582535
25	0xbebc0876	-0.36725205
26	0x3d4738bc	0.04863809
27	0xbe956da1	-0.29185203
28	0xbe1ade97	-0.15123974
29	0xbed1b3b5	-0.40957418
30	0xbe709d91	-0.23497607
31	0xbee014a8	-0.4376576
32	0x3e790472	0.24318102
33	0xbf025461	-0.5091
34	0x3ed5d894	0.41766798
35	0x3db5a7fe	0.088699326
36	0xbe8def24	-0.27721512
37	0xbee21f7e	-0.44164652
38	0xbefddccb	-0.49582514
39	0xbeafa9a7	-0.34309122
40	0xbed258de	-0.41083425
41	0xbe9f9e2a	-0.31175357
42	0xbdd3ce1b	-0.10342046
43	0xbe621632	-0.2207878
44	0x3e348d9d	0.17632146
45	0xbc97a2fc	-0.018510334
46	0x3f2406f5	0.64073116
47	0xbe94e489	-0.29080608
48	0x3f95bf36	1.1698978
49	0x3d54deb5	0.051970202
50	0xbe995e98	-0.29954982
51	0xbe8eed1b	-0.27915272
52	0x3e3d364f	0.18477748
53	0xbe0bc0db	-0.13647787
54	0xbe3c4796	-0.18386683
55	0xbd1871c5	-0.037217874
56	0xbd63aec3	-0.055586588
57	0x3e6e7f80	0.23290825
58	0xbe9a8c94	-0.30185378
59	0x3ec59510	0.38590288
60	0xbecc7ddf	-0.39939782
61	0xbe945803	-0.28973398
62	0xbec61522	-0.38687998
63	0xbe7e787c	-0.24850649

range_layer.0.weight f4 [1, 64]
0	0xbf18b0e9	-0.59644943
1	0xbf2add74	-0.6674416
2	0xbed9db2f	-0.42550036
3	0xbeae200f	-0.34008834
4	0xbeec51fe	-0.46156305
5	0x3f12d025	0.57348853
6	0xbe8a923b	-0.2706469
7	0xbf2b0866	-0.6680969
8	0xbf01a33a	-0.5063969
9	0xbf055270	-0.52078915
10	0xbea20336	-0.31643075
11	0xbefcb76f	-0.493587
12	0x3e113b5f	0.14182805
13	0xbf0255f6	-0.50912416
14	0x3d10855c	0.03528343
15	0xbf0d4dff	-0.5519714
16	0xbf0bf36d	-0.54668313
17	0xbe9de9ee	-0.30842537
18	0xbdf016bd	-0.11723087
19	0xbe9f1208	-0.31068444
20	0xbebd8a31	-0.37019494
21	0xbf1a2dfc	-0.60226417
22	0x3ef74f7e	0.48302835
23	0xbf23f1d2	-0.64040864
24	0x3e5c4968	0.21512377
25	0xbdc9dc37	-0.09856456
26	0x3e33e1d8	0.17566621
27	0xbeb1e180	-0.34742355
28	0xbedf2337	-0.43581554
29	0xbe9d212b	-0.30689368
30	0xbf7b67ec	-0.9820545
31	0xbea8d83b	-0.3297747
32	0x3df8a208	0.1214028
33	0xbda971ca	-0.08273657
34	0x3f2b1226	0.6682457
35	0xbf148397	-0.5801329
36	0xbf2d8fa7	-0.6779732
37	0xbe4965b5	-0.19667704
38	0xbcde3017	-0.02712254
39	0xbee11c1f	-0.43966767
40	0x3e87eaf0	0.2654643
41	0xbec6ce54	-0.3882929
42	0xbf461577	-0.773765
43	0x3ed97ffa	0.4248045
44	0x3f1b123e	0.6057471
45	0x3e228252	0.15870026
46	0xbf193a41	-0.59854513
47	0x3d8db9ef	0.0692023
48	0xbeb60b9a	-0.35555726
49	0xbf76ccbf	-0.9640617
50	0xbf5b20c9	-0.855969
51	0xbecc485e	-0.39898962
52	0xbef22842	-0.4729634
53	0x3ef546ff	0.47905728
54	0xbf093a38	-0.5360446
55	0xbe9b6e32	-0.3035751
56	0xbf0faa4c	-0.5611923
57	0x3ea51c61	0.32248214
58	0xbec16ce9	-0.37778404
59	0x3e861fd8	0.2619617
60	0xbea37a37	-0.3192918
61	0xbebeb1f3	-0.3724514
62	0xbea61624	-0.32438767
63	0x3ed4b63f	0.41545293
