projection/weight/fix.pt (torch, 5191 bytes, 7 tensors)

layers.0.weight f4 [64, 2]
000000 7e 97 2b bf 4d 9b 12 3f a6 12 8e be 5b 8c ca 3d
       -0.67028034 0.5726822 -0.27748603 0.09890052
000010 a9 cb 8c 3e 5b 84 40 bd 7e 59 48 3e 25 33 0f bd
       0.2749913 -0.047001224 0.19565389 -0.034960885
000020 66 42 0e 3e 7f cc cc 3e 9e a1 73 3e bf 9e b8 bd
       0.13892516 0.39999768 0.23792121 -0.090146534
000030 90 52 ae 3e 8d 44 d9 be bc f9 d4 be a0 20 9d 3d
       0.34047365 -0.42435113 -0.41596782 0.07672238
000040 57 49 cd 3e dc 28 ab 3e 21 59 82 bc 68 11 f6 3e
       0.40095016 0.3342961 -0.01591164 0.48060155
000050 63 ea 7c 3d c6 1a 2a be bb b8 d3 3e 33 0d 9c 3e
       0.061746966 -0.16611776 0.41351876 0.3047882
000060 fb 40 a7 be c1 f8 6a 3e 57 eb 15 bf 62 c3 06 3e
       -0.32666764 0.22946455 -0.58562225 0.1316047
000070 b5 aa c7 be 59 4a 25 bf 32 43 27 3f 6e d0 3e 3e
       -0.38997427 -0.6456657 0.65336907 0.18634197
000080 13 2d 22 3d 93 41 1b be e5 fe 34 3f e7 8d 08 bf
       0.039593767 -0.15161733 0.7070144 -0.53341526
000090 fe 88 fa 3d 38 70 0a 3f 00 f5 13 3f 84 71 67 3e
       0.122331604 0.5407748 0.57795715 0.22601897
0000a0 18 ce 0e 3f 7d d4 0e 3f ca 9d 47 be 75 c8 45 bf
       0.55783224 0.5579298 -0.19493786 -0.77259
0000b0 ea a1 c8 3e a2 de d5 be 40 57 3c 3f 66 7b 39 3e
       0.3918603 -0.41771418 0.7357063 0.18113479
0000c0 25 87 2e 3f df 6f 04 bf c3 e5 de 3e 4e af 83 3d
       0.68174964 -0.517332 0.4353467 0.06429921
0000d0 44 7c 8d be 63 17 52 3e e7 d5 f6 bd 68 fa 00 be
       -0.2763387 0.20516734 -0.120525174 -0.12595522
0000e0 d9 64 c2 3d 29 74 b7 bd 18 c2 1c bf 8b 61 7e bd
       0.094918914 -0.08957703 -0.61233664 -0.062104743
0000f0 f4 0d 27 bf 13 0f 59 3e d5 07 19 bf 75 34 16 bd
       -0.65255666 0.21197157 -0.59777576 -0.03667112
000100 cb da 99 3e 5a 15 0a be 0a a8 99 be 41 95 19 be
       0.30049738 -0.13484707 -0.30011016 -0.14998342
000110 6d ff c4 3e a4 35 e1 3e d6 92 b2 3d 72 ec df 3e
       0.38476124 0.43986237 0.08719413 0.4373508
000120 73 a1 0a bf e5 be e5 3e c3 c9 1c bf 75 6c d4 3d
       -0.541526 0.44872203 -0.61245364 0.10372249
000130 f1 52 88 3e 84 82 07 be 8c a0 8e bd 4a 6d 7f 3e
       0.2662578 -0.13233382 -0.06964216 0.24944034
000140 f8 62 b1 3e 37 1e ff bd cf 76 a2 3c cf 1e 0d 3d
       0.3464582 -0.12456935 0.019832043 0.03445321
000150 b3 57 8f be de 07 a8 3d 26 41 a8 3e a7 80 dc be
       -0.27996597 0.082046255 0.32862204 -0.43066904
000160 8e 38 12 bf cc 12 90 be e6 92 88 be 9f b0 65 3e
       -0.57117546 -0.2813934 -0.26674575 0.22430657
000170 e7 6a 1c bf 65 85 79 3e 56 03 fb be 22 c0 91 bd
       -0.6110062 0.24367292 -0.49025983 -0.071167246
000180 0c 43 1f 3f 22 f1 b4 be 8d 52 f3 3e 41 66 9e be
       0.6221168 -0.3534022 0.4752392 -0.3093739
000190 86 b8 1a 3f 8b 03 3d 3e 6b 5c 12 3f fb b7 8b 3d
       0.6043781 0.18458383 0.5717227 0.06822201
0001a0 8b 3b 79 bd 41 ef 51 3e 1f 33 87 be e3 7c a7 3e
       -0.0608478 0.20501424 -0.2640619 0.32712469
0001b0 41 7f 82 3e 98 1e 99 be 88 ab 35 3e 89 8f d3 3e
       0.25487712 -0.29906154 0.17741215 0.41320446
0001c0 ca a9 e9 be 96 62 b5 bd ae 28 0b 3f c8 24 f2 be
       -0.4563735 -0.088566944 0.5435895 -0.47293687
0001d0 d1 0b e8 be 6d 83 47 be 62 e1 b2 be 4d 97 32 3f
       -0.45321515 -0.19483729 -0.34937578 0.69762117
0001e0 31 7e 5a 3d 67 d4 ef be 3f 8e 0f bf 07 25 3b 3f
       0.053343 -0.46841738 -0.56076425 0.73103374
0001f0 5a ac 48 be fc 28 23 be b6 50 38 bf 17 1c c2 3e
       -0.19596997 -0.15933603 -0.71998155 0.37912056

layers.1.weight f4 [64]
000000 8a 27 79 3f 81 f7 88 3f 43 1f 53 3f 35 06 01 3f
       0.97325957 1.0700532 0.82469577 0.50400096
000010 49 6f 69 3f 4b 9d 45 3f 32 8d 50 3f 20 5a 22 3f
       0.9118543 0.77193135 0.81465447 0.6341877
000020 b2 68 67 3f fd 2c 6d 3f 1f 68 1d 3f ce c5 86 3f
       0.9039413 0.9264677 0.61487 1.0529115
000030 3f 33 4f 3f a3 d9 3a 3f 47 36 84 3f 9f 70 84 3f
       0.8093757 0.7298834 1.0329064 1.0346869
000040 fe 54 52 3f 9a ae 71 3f 68 18 69 3f e1 de 4d 3f
       0.8216094 0.94407046 0.91052866 0.8041821
000050 58 3c 52 3f c5 78 86 3f a3 c5 76 3f ee b4 84 3f
       0.8212333 1.0505606 0.9639532 1.0367715
000060 17 52 57 3f 48 04 52 3f e6 32 4e 3f 9d c0 3f 3f
       0.84109634 0.8203778 0.80546415 0.7490328
000070 d9 1b 52 3f b2 b7 45 3f 2c 2b 69 3f 7d dd f2 3e
       0.8207374 0.7723342 0.910815 0.47434607
000080 a3 c2 51 3f 76 cc 5a 3f 22 61 5e 3f e9 4f 30 3f
       0.8193762 0.8546823 0.8686696 0.68871933
000090 78 f4 47 3f d2 95 5a 3f 00 b8 2f 3f 25 04 7b 3f
       0.78107405 0.8538486 0.68640137 0.980532
0000a0 d4 71 7c 3f b3 a4 75 3f eb 5b 4f 3f dc 91 87 3f
       0.9861119 0.95954436 0.8099963 1.0591388
0000b0 6d 40 83 3f e2 b4 5c 3f 35 07 25 3f d1 7d 54 3f
       1.0254036 0.86213505 0.6446412 0.8300448
0000c0 85 d9 6e 3f 52 11 5d 3f 3c f5 7c 3f 57 d2 43 3f
       0.9330066 0.86354554 0.988117 0.7649283
0000d0 b1 0b 6b 3f f4 12 84 3f e3 5b 6e 3f d7 be 67 3f
       0.91814715 1.0318284 0.9310896 0.90525573
0000e0 a8 bc 61 3f 36 78 75 3f d7 49 82 3f 9d 3d 8a 3f
       0.8817849 0.9588655 1.0178784 1.0800053
0000f0 57 a0 4c 3f 7a 98 8e 3f dc 06 71 3f 20 ff 85 3f
       0.7993216 1.1140282 0.9415109 1.0468483

layers.1.bias f4 [64]
000000 84 12 b3 bf d6 58 76 be 0f d3 81 be 23 4c 7a be
       -1.3990026 -0.24057326 -0.25356337 -0.24443106
000010 ee 2c 96 be 65 0c 1d bf 0e ee ed be 33 e5 ad 3d
       -0.29331154 -0.6134704 -0.46470684 0.08490982
000020 ea b2 91 be 12 1e a2 be 8e 42 11 3f 30 6e e8 be
       -0.28456813 -0.31663567 0.5674218 -0.45396566
000030 12 b8 13 3f ca 6d b4 be fc 5d 83 3e 6a 9c 10 bf
       0.57702744 -0.35240012 0.25657642 -0.5648867
000040 76 bc 88 3c 94 d4 ac 3e a8 c2 82 bf 49 61 18 3f
       0.016691428 0.33755934 -1.0215654 0.59523445
000050 be 81 08 3f a1 45 6e 3e a3 7b b0 3e 94 0f 82 be
       0.5332297 0.23268749 0.34469327 -0.2540251
000060 37 51 c4 3e 44 1d 21 be ec f0 4e be e1 86 aa 3e
       0.38343212 -0.1573382 -0.20209092 0.3330603
000070 7c e5 27 bf 8f 7f 91 be 58 be 93 be eb c3 11 3f
       -0.6558454 -0.28417632 -0.28856158 0.5693957
000080 0a c2 82 be e2 68 b8 3e f6 45 96 3d 72 0a e3 3e
       -0.25538665 0.3601752 0.07337563 0.44343907
000090 26 4e 13 3f 30 44 26 be 3e 48 51 3e 22 6e 2f be
       0.5754112 -0.16236949 0.20437714 -0.17131856
0000a0 ce 68 a2 3e 4e 28 76 be 89 a9 e5 3e df ae 63 3e
       0.31720585 -0.24038813 0.44855908 0.22234677
0000b0 61 2e 8f 3e 3d e4 43 bf 88 ae be 3e 97 9a da be
       0.27965072 -0.7652014 0.37242532 -0.42696068
0000c0 ac 84 b0 3e 16 cd 3e be 6a 95 b2 be 76 44 cd 3e
       0.3447622 -0.18632922 -0.3487962 0.40091294
0000d0 eb 9f 4f be b9 2d 73 be 0a ec b8 3e 50 c9 97 bf
       -0.20275848 -0.2374791 0.36117584 -1.1858311
0000e0 75 f8 27 3e 78 00 ad 3e 69 2d 8d 3e d2 64 ce be
       0.16403373 0.3378942 0.27573708 -0.40311295
0000f0 6f 42 eb 3e 11 63 ca bf f1 ee b8 3e c9 cf bf be
       0.45949122 -1.5811483 0.36119798 -0.37463215

layers.1.running_mean f4 [64]
000000 4f e1 b1 bd 29 b2 d6 bd 48 74 04 3e 35 ee ba 3d
       -0.08685552 -0.104832 0.12934983 0.09127466
000010 05 a0 8d 3e 22 aa b2 3d 25 7a b7 bc e8 7e 45 be
       0.27661148 0.087238565 -0.02239711 -0.19286692
000020 00 63 c7 3e 20 50 6c 3e 59 b3 46 bd 57 6e c3 3e
       0.38942719 0.2307744 -0.048510883 0.3817012
000030 38 70 89 bd e3 fe 84 be 3b dd 09 bf 22 6c e9 3e
       -0.06710857 -0.25975713 -0.53853196 0.4559031
000040 28 7b 5b bd 73 e8 01 3e e3 d6 ac 3e 86 13 de 3e
       -0.053584248 0.12686329 0.33757696 0.4337427
000050 37 89 16 3f 10 a6 fc be f6 f7 1a 3c 81 83 ff 3e
       0.58803123 -0.49345446 0.009458533 0.49905017
000060 9b 7b f7 3d 5a 3b 8c 3e 69 ca 51 bd 78 e0 04 be
       0.12084123 0.27389032 -0.051218424 -0.12976253
000070 87 5a 04 3c cb 06 be be 07 80 83 be 04 67 b3 be
       0.008078224 -0.37114558 -0.25683615 -0.35039532
000080 cc 3d cc 3d d0 4b 77 be 34 ba dd 3e 60 6c 88 3e
       0.09972724 -0.24150014 0.43306124 0.26645184
000090 53 0a 9e bd 63 bb 93 be b7 d4 a7 3d 08 7c af 3d
       -0.07716813 -0.28853902 0.08194869 0.08568579
0000a0 2f 81 05 3e 60 22 e7 3c 10 d0 ea bd 70 97 03 bd
       0.13037561 0.028214633 -0.11465466 -0.032126844
0000b0 45 4a ea be 94 df 14 bd da 38 5f be 4f 9d 9d be
       -0.45759788 -0.036346033 -0.21799031 -0.3078408
0000c0 a1 81 2d 3e d0 dc e0 3d 9f 09 db 3e 3e 08 b4 3e
       0.16943981 0.10979617 0.42780778 0.35162538
0000d0 b4 21 8c 3d 7b 5e 86 3c b2 8b f5 bb 00 f2 9b 3e
       0.06842366 0.016402474 -0.0074934596 0.3045807
0000e0 51 6b 98 be 93 9f 87 3d d4 a4 b2 be a8 65 1d 3e
       -0.29769376 0.06622233 -0.3489138 0.1537081
0000f0 84 c9 50 be 20 cc 58 3d 51 d3 40 be 59 07 58 be
       -0.20389372 0.052929044 -0.18830611 -0.21096553

layers.1.running_var f4 [64]
000000 0c cf de 3c cb cd 54 3a dc ee 3f 39 96 5d d4 38
       0.027198337 0.0008117824 0.00018304161 0.000101263795
000010 53 67 59 3c 63 a1 30 3a 7d a0 74 3c 79 97 ff 39
       0.013269263 0.00067379157 0.0149308415 0.00048750246
000020 49 db 17 3c 60 eb 9c 3c 27 f4 15 3b 4a 79 fc 3b
       0.00926859 0.019155204 0.0022881122 0.0077048885
000030 18 02 8f 3b 00 1d bc 3a 12 95 0d 3d b7 c7 3c 3b
       0.0043642633 0.0014351904 0.034565993 0.0028805563
000040 20 cd f9 3a d0 44 c1 3c 55 ac c6 3c 8d be 8a 3b
       0.0019058324 0.023592383 0.024252096 0.004234141
000050 90 69 d3 3c 12 b8 4a 3d 94 09 6d 3c 0b 61 32 3b
       0.025807172 0.04949195 0.014467616 0.0027218487
000060 ac cb b5 3c f7 83 b3 39 51 d5 64 3b d9 7b ac 3a
       0.022191845 0.00034239862 0.0034917186 0.0013159468
000070 ef 64 2e 3a a9 a5 a7 39 38 43 74 3b 1c 3a ea 38
       0.00066526135 0.0003197615 0.003727151 0.00011168813
000080 0c 91 c5 3a 50 7c f4 3a 50 72 83 3c 50 e6 81 3c
       0.0015073135 0.0018652771 0.01604572 0.015856892
000090 2c be 88 3c e9 e2 69 3a 15 53 be 3a b5 1d a9 3b
       0.016692244 0.0008922057 0.001452061 0.005161012
0000a0 de a4 a8 3a ed eb ce 38 88 2c 12 3a aa f4 7b 3c
       0.0012866517 9.86679e-05 0.00055760937 0.015378157
0000b0 37 20 d7 3b 28 c2 88 3b d0 45 a1 3b a8 1e dc 39
       0.0065651196 0.004173536 0.0049216524 0.0004198451
0000c0 cf aa 29 3c ed 03 02 3c 29 3b 39 3b a5 41 ca 39
       0.010355665 0.007935506 0.0028264022 0.0003857735
0000d0 69 7f 64 3b 39 6a 11 3c e8 01 f3 3b b3 00 68 3c
       0.0034865981 0.008875423 0.0074159987 0.014160323
0000e0 ff 7f 2a 3a 5c ed 97 3c 06 44 4e 3b fc 4e 25 3d
       0.0006504058 0.018545799 0.003147365 0.04035853
0000f0 dc 0c 95 3c 04 86 35 3d ce f5 09 3b 87 4e 43 3c
       0.018194608 0.04431726 0.0021051052 0.011920578

height_layer.0.weight f4 [1, 64]
000000 ae 7d 5a 3d 7a 41 a9 3d ab a3 a5 bd a6 24 82 bb
       0.053342514 0.08264442 -0.08087858 -0.003971654
000010 b0 ea 19 3e 0c ff 98 bd 24 51 ad 3b de 0a 99 bc
       0.15030932 -0.07470521 0.0052892137 -0.01868194
000020 93 44 0b 3e 02 bb 21 3e d5 35 3f be 1f 7c 48 3e
       0.13600378 0.15793994 -0.18672879 0.19578598
000030 0f d1 3a be f5 21 3a bd 84 f0 ca bd e0 6b 29 3e
       -0.18243812 -0.04544254 -0.09909156 0.16545057
000040 6c 9e da bb d7 28 4d be c8 65 c1 3d f6 53 25 be
       -0.0066717174 -0.2003511 0.09443241 -0.1614531
000050 6a 75 50 be 45 59 ed bd e8 65 d9 bd 1a 1a 9e 3d
       -0.2035729 -0.115892924 -0.1061514 0.07719822
000060 71 2d 1c be d2 78 d4 bd 1e 32 8f 3d 1c 33 92 bc
       -0.1525171 -0.10374607 0.06991981 -0.017846636
000070 88 58 2b bd 75 40 ed bd 84 dc cc 3d 4c 7f 30 be
       -0.041832477 -0.1158456 0.100029975 -0.1723606
000080 6f 01 af bd 6d 31 11 be 71 2f d7 bd 53 47 4f bd
       -0.08545195 -0.1417901 -0.105070956 -0.05060513
000090 91 9d 22 be 2f 3e 4a 3d 41 3f 26 be 00 08 1f 3d
       -0.1588042 0.04937571 -0.16235067 0.03882599
0000a0 c7 9f 3c be 5a 29 15 3e cf 29 29 be df 8d 1a be
       -0.18420325 0.14566556 -0.16519855 -0.15093182
0000b0 f1 6d 51 be 9b c9 f7 3d 54 db 91 bd 5e 70 80 3c
       -0.20452096 0.12099 -0.07121912 0.01567858
0000c0 72 a1 19 be bb 9c d0 bc dd 04 48 3e 70 96 27 be
       -0.15002993 -0.02546536 0.19533105 -0.16365981
0000d0 81 73 51 3d ef b9 96 3d 67 f6 c9 bd fa cc 98 3d
       0.051135544 0.07359683 -0.09861451 0.07460971
0000e0 67 08 4c bd e5 ed 10 be 08 26 7d bd 52 37 59 3e
       -0.0498127 -0.1415325 -0.061803848 0.2121251
0000f0 89 be 4c be eb 7d 8d 3c c2 a5 b1 bd fa 26 54 3e
       -0.19994558 0.017271956 -0.08674194 0.20717993

range_layer.0.weight f4 [1, 64]
000000 ef 22 50 3f a9 55 80 3e 85 ca 57 bd f3 e4 e1 bc
       0.81303304 0.25065354 -0.052683372 -0.027574992
000010 b0 ba 8f 3c ff 00 1b be 35 c2 2e be 88 29 01 be
       0.017545074 -0.15137099 -0.17066272 -0.12613499
000020 d3 9a ba 3c e7 71 03 3d 33 4f 69 3d a0 0a 83 3e
       0.022778904 0.032091048 0.056960296 0.25594044
000030 b2 bb d3 bd 86 8d c9 bd ef 2f 43 be 77 33 85 3e
       -0.103385344 -0.098414466 -0.19061254 0.26015827
000040 c2 7c 3f be 6b e9 f2 bc bd c5 12 3f 15 da fc bd
       -0.18699935 -0.029652318 0.57332975 -0.12346283
000050 56 80 59 bd a3 3e 5f be dc 69 0d be 0a 9a 3d 3e
       -0.053100906 -0.21801238 -0.13809913 0.18515792
000060 b1 3d 61 bd c5 54 71 3c 51 ea 95 3c d8 83 37 be
       -0.054990474 0.014729683 0.018300207 -0.17921388
000070 8b 6c 4a be 58 d5 20 bd 82 3e 8a 3d e8 dd 8e 3d
       -0.19767968 -0.03926596 0.06750204 0.06975919
000080 23 db 50 bd 4e 28 87 bd 20 5f d1 3d 22 d5 fb bd
       -0.050990235 -0.065994844 0.10223222 -0.12296511
000090 cd 67 2f be 22 10 71 3b 96 38 af 3c f6 eb 31 3e
       -0.1712944 0.0036783298 0.021389287 0.17375168
0000a0 9e 8f 9a bd 59 8e d2 3d 88 67 72 bb 2e 75 62 be
       -0.07546924 0.10281057 -0.003698798 -0.22115013
0000b0 bd 5b ba bd 11 f2 6f 3e ab b1 3a bc 27 50 2f be
       -0.09099529 0.23432185 -0.011394898 -0.1712042
0000c0 75 37 9b bd 48 9d 5b bd 8b a2 a9 3d 68 05 26 bc
       -0.07578937 -0.053616792 0.08282956 -0.010133125
0000d0 d5 9f e6 3d 83 1e 3a 3e 8b d6 06 be 65 8f 32 3f
       0.11260954 0.18175702 -0.13167779 0.6975005
0000e0 44 e3 07 be 56 0b c5 bd e2 1c 5a be 3e 56 85 3e
       -0.13270289 -0.09621303 -0.2130008 0.2604236
0000f0 26 a4 57 bc 64 31 6f 3f f3 39 19 be 35 8f 1a 3e
       -0.013161695 0.9343474 -0.14963512 0.15093692
