projection/weight/range.pt (torch, 5191 bytes, 7 tensors)

layers.0.weight f4 [64, 2]
-1.1506708 0.1432934 -1.0589014 -0.46165887 0.2838626 0.75567573 0.029074954 -0.27872473
0.25135195 -0.6807563 -0.20954199 0.63887715 -1.1256585 -0.3942243 0.26478955 1.3598626
0.77900165 0.40488634 -0.0307183 -0.66431826 0.309673 0.9573882 0.2528469 0.7342597
-0.6875855 0.20383807 -0.5304339 -0.35823393 -0.22151114 0.6134992 -1.6417096 -0.3330963
-0.78167963 0.7697916 1.02665 -0.27442092 -0.3480882 -0.5565916 -0.15130389 -1.2856872
0.54118735 -0.87159526 0.14482683 -0.7908514 -0.52760786 -0.4277508 1.5531005 -0.3269239
0.20810562 -0.40048787 0.96990997 -0.6527316 -1.1642418 0.16269808 -0.4034717 0.28691107
-0.27765903 -0.81733227 -0.25364614 0.48418948 1.4631536 -0.32359546 -1.4642411 -0.06347968
-0.26452184 0.470851 -1.439851 -0.2489042 -1.194748 -0.15994892 1.1811576 -0.28637064
-0.99551046 -0.017198168 0.8874483 -0.41641104 1.0988797 0.12016515 -0.2956051 1.0580403
-0.6493795 -0.19709173 -0.38808417 -0.40167278 -0.5734818 0.86687464 -0.0027527157 -1.0285504
0.15928696 -1.1561377 0.43972376 -0.39483792 1.6900928 -0.3319215 -0.816117 -0.30964598
0.21635522 -1.0071667 -0.47529587 0.28673962 -0.3779492 -0.37891322 0.016898336 0.825499
0.39166275 0.29831478 0.03865603 1.0052474 -0.6989238 -0.3683125 -0.05792641 -0.6748614
-0.82802343 0.0055514877 -0.015732804 -0.40885848 1.1113899 -0.2221527 -0.8394708 -0.109634
0.31489804 0.72173107 -1.284541 -0.05727387 0.8765164 0.11513122 -1.3159628 0.054828998
00000000: 2e49 93bf 81bb 123e 158a 87bf 8d5e ecbe
00000010: 7056 913e f773 413f 992e ee3c 02b5 8ebe
00000020: 34b1 803e 0b46 2ebf 2d92 56be 748d 233f
00000030: 9415 90bf c4d7 c9be 7f92 873e fa0f ae3f
00000040: a76c 473f 434d cf3e f2a4 fbbc c310 2abf
00000050: 768d 9e3e 6517 753f 2675 813e 72f8 3b3f
00000060: 9a05 30bf edba 503e 84ca 07bf 706a b7be
00000070: d1d3 62be 490e 1d3f 8a23 d2bf 998b aabe
00000080: 281c 48bf 1011 453f 4469 833f e680 8cbe
00000090: 9e38 b2be c97c 0ebf 68ef 1abe 6691 a4bf
000000a0: 418b 0a3f de20 5fbf 7c4d 143e 3d75 4abf
000000b0: 4f11 07bf 2702 dbbe ffcb c63f 9262 a7be
000000c0: a419 553e bf0c cdbe 054c 783f 6b19 27bf
000000d0: e005 95bf 539a 263e d893 cebe 02e6 923e
000000e0: 5329 8ebe b03c 51bf e8dd 81be afe7 f73e
000000f0: 9e48 bb3f 4eae a5be 416c bbbf a201 82bd
00000100: 686f 87be 6213 f13e 0a4d b8bf bee0 7ebe
00000110: 81ed 98bf a6c9 23be 2c30 973f 2c9f 92be
00000120: c6d9 7ebf 2ce3 8cbc d02f 633f d433 d5be
00000130: 17a8 8c3f 2519 f63d 8d59 97be dd6d 873f
00000140: bc3d 26bf 6ad2 49be f8b2 c6be 0ea8 cdbe
00000150: b4cf 12bf 7feb 5d3f e866 34bb 8aa7 83bf
00000160: 1f1c 233e 52fc 93bf 7923 e13e 3228 cabe
00000170: f654 d83f 9df1 a9be 0bed 50bf eb89 9ebe
00000180: 398c 5d3e d7ea 80bf fb59 f3be 89cf 923e
00000190: 8f82 c1be ea00 c2be 616e 8a3c e753 533f
000001a0: 0588 c83e b7bc 983e c955 1e3d f2ab 803f
000001b0: acec 32bf 7593 bcbe 3e44 6dbd b7c3 2cbf
000001c0: 58f9 53bf 41e9 b53b 15e2 80bc e655 d1be
000001d0: 0642 8e3f ff7b 63be 8fe7 56bf ca87 e0bd
000001e0: 513a a13e 5ec3 383f d76b a4bf 0198 6abd
000001f0: 6163 603f ebc9 eb3d 7871 a8bf 5f94 603d

layers.1.weight f4 [64]
0.5048009 0.89446616 0.31510496 0.5106616 0.49097958 0.07977261 0.87254876 0.36560968
0.52452207 0.4845371 0.4722005 0.3382836 0.43154675 1.0123183 0.31580198 1.0028185
0.33321074 0.44221085 0.9485564 0.49074933 0.5238224 0.48610413 0.864813 0.59889793
0.4926176 1.1373346 0.54378945 0.26026115 0.50255024 0.3333405 0.8865257 0.46064606
0.31747413 1.0563012 1.3366292 0.57341236 0.4340056 0.14582518 0.6254904 0.09327864
0.32767183 0.9053729 0.50492185 0.8718156 0.5333345 0.64351046 0.49536774 0.83623046
0.4994707 0.2840874 0.9172418 1.028826 0.3790671 0.36717123 1.0590978 0.5320201
0.32541764 0.6139437 0.86698556 1.2036086 0.3950132 0.6761337 0.41866672 0.90682787
00000000: a23a 013f bcfb 643f 7055 a13e b8ba 023f
00000010: ad61 fb3e d25f a33d 5b5f 5f3f 3131 bb3e
00000020: 1447 063f 3f15 f83e 44c4 f13e 8233 ad3e
00000030: b2f3 dc3e a593 813f ccb0 a13e 5b5c 803f
00000040: 999a aa3e 7669 e23e 98d4 723f 7f43 fb3e
00000050: 3a19 063f a4e2 f83e 6364 5d3f 6051 193f
00000060: 6038 fc3e 2e94 913f c935 0b3f f340 853e
00000070: 22a7 003f 9bab aa3e 59f3 623f cdd9 eb3e
00000080: f88b a23e e134 873f aa16 ab3f 27cb 123f
00000090: fb35 de3e 3253 153e 2420 203f df08 bf3d
000000a0: 9ac4 a73e 85c6 673f 8f42 013f 4f2f 5f3f
000000b0: 9c88 083f 1abd 243f d7a0 fd3e 3313 563f
000000c0: a0ba ff3e e773 913e 5cd0 6a3f 92b0 833f
000000d0: 1515 c23e defd bb3e 8490 873f 7832 083f
000000e0: 249d a63e 6a2b 1d3f c4f2 5d3f d90f 9a3f
000000f0: 2c3f ca3e 1917 2d3f 7c5b d63e df25 683f

layers.1.bias f4 [64]
-0.08933044 -0.5263628 -0.6492707 -0.58332205 -0.5319568 0.10597373 -0.3182976 0.104432784
0.14050621 -0.55611813 0.07788075 -0.5764138 -0.22461323 0.1039529 -0.58550394 0.020234194
-0.65045404 0.36411235 -0.8887421 -0.5611189 -0.5021126 -0.5673455 -0.72194856 0.3454827
-0.53681636 0.03646061 -0.10949932 -0.5237729 -0.5690787 -0.64706415 0.57981616 0.46640438
-0.5973494 0.37149218 0.24578878 0.41830507 -0.47810745 -0.20975815 -0.2601634 -0.38237682
-0.34033078 -0.95078087 -0.55399394 -0.6249514 -0.48860267 1.2087677 0.25841555 -0.38146362
-0.59269595 -0.56521577 -0.28431976 -0.3334782 -0.45254585 -0.73813885 -0.5811534 -0.48441905
-0.45659858 -0.7006511 0.46633166 0.18586437 -0.6208223 0.52246165 -0.08637197 0.54829174
00000000: e1f2 b6bd b6bf 06bf 9b36 26bf 9854 15bf
00000010: 522e 08bf c108 d93d e7f7 a2be dbe0 d53d
00000020: dce0 0f3e c25d 0ebf f17f 9f3d db8f 13bf
00000030: 0301 66be 42e5 d43d 96e3 15bf 2ec2 a53c
00000040: 2884 26bf ef6c ba3e 9a84 63bf 7da5 0fbf
00000050: 748a 00bf 8e3d 11bf 9fd1 38bf 1ce3 b03e
00000060: cc6c 09bf b857 153d 2e41 e0bd fb15 06bf
00000070: 24af 11bf ffa5 25bf d56e 143f 8ecc ee3e
00000080: e4eb 18bf 3934 be3e 0eb0 7b3e 152c d63e
00000090: 80ca f4be d7ca 56be 2334 85be e5c6 c3be
000000a0: d63f aebe 6066 73bf 8cd2 0dbf d1fc 1fbf
000000b0: 212a fabe e6b8 9a3f 0b4f 843e 334f c3be
000000c0: ecba 17bf fbb1 10bf 5c92 91be a8bd aabe
000000d0: 17b4 e7be abf6 3cbf 78c6 14bf c605 f8be
000000e0: 4ac7 e9be df5d 33bf 06c3 ee3e 3b53 3e3e
000000f0: 36ee 1ebf 0cc0 053f cae3 b0bd d95c 0c3f

layers.1.running_mean f4 [64]
-0.11962066 -0.40664935 0.42481846 -0.13446377 -0.2984404 0.2844897 -0.38407812 0.72361684
0.33182377 -0.3371026 0.52994263 0.40895814 -0.012392868 -0.26720706 0.2697948 -0.4392808
0.25482836 0.033501312 -0.3360017 -0.66766924 -0.34566498 -0.37116757 -0.30143532 0.09472498
-0.16556832 -0.16502203 -0.1121733 0.07634688 -0.4546011 0.19983214 0.08145674 -0.27504224
0.19135907 -0.3636585 -0.2784959 0.05320316 -0.17400193 -0.06065034 0.24263942 0.47964573
-0.20637308 -0.26522115 0.3378743 -0.5144743 -0.55132526 -0.12418396 0.11499749 -0.29033187
-0.46738687 0.064327225 -0.2521619 0.41535944 0.21415569 0.5088012 -0.3001976 -0.34689155
-0.13480537 -0.20694353 0.073702246 -0.19431575 0.4130332 -0.24208139 0.20319 -0.19129743
00000000: adfb f4bd 5834 d0be ce81 d93e dfb0 09be
00000010: 2ecd 98be a2a8 913e e3a5 c4be f43e 393f
00000020: cee4 a93e b698 acbe 52aa 073f f662 d13e
00000030: 750b 4bbc 5dcf 88be 8b22 8a3e 6ae9 e0be
00000040: dd78 823e ac38 093d 6a08 acbe 5fec 2abf
00000050: 00fb b0be ad09 bebe bb55 9abe 2cff c13d
00000060: be8a 29be 89fb 28be 1dbb e5bd c15b 9c3d
00000070: 7ac1 e8be cca0 4c3e cbd2 a63d 56d2 8cbe
00000080: a2f3 433e 7231 babe 0497 8ebe 8feb 593d
00000090: 902d 32be 7e6c 78bd 7876 783e 2094 f53e
000000a0: 7753 53be 11cb 87be dcfd ac3e 96b4 03bf
000000b0: a723 0dbf 2954 febd ce83 eb3d 61a6 94be
000000c0: 554d efbe febd 833d 5d1b 81be fea9 d43e
000000d0: a14b 5b3e cc40 023f 80b3 99be c59b b1be
000000e0: 6b0a 0abe 01e9 53be 34f1 963d b5fa 46be
000000f0: 1679 d33e 2fe4 77be 0a11 503e 79e3 43be

layers.1.running_var f4 [64]
0.005782959 0.021152688 0.047621764 0.006446243 0.038628038 0.033989288 0.016820846 0.15362963
0.015489044 0.036609348 0.07634715 0.044920485 0.0049002166 0.011526675 0.031366523 0.017543573
0.05101864 0.009486508 0.026077794 0.13718604 0.06390142 0.051939476 0.016043248 0.016289517
0.0134347845 0.038218275 0.006371566 0.007326643 0.055654828 0.019640502 0.015272838 0.0069540865
0.018601201 0.011551335 0.006536231 0.011093094 0.0030835755 0.016801395 0.0049286988 0.093113884
0.0045260466 0.013852327 0.06331712 0.0877504 0.11094413 0.013515023 0.017931515 0.010014164
0.084276795 0.0075126067 0.012354039 0.056531206 0.007859707 0.08382503 0.012768324 0.03778849
0.0021183419 0.0138667235 0.00789477 0.0031765068 0.043527547 0.005366884 0.0034743808 0.0055914177
00000000: fa7e bd3b 6748 ad3c 0a0f 433d 013b d33b
00000010: 6f38 1e3d 5a38 0b3d dfcb 893c 1651 1d3e
00000020: c2c5 7d3c aff3 153d e55b 9c3d 8bfe 373d
00000030: ff91 a03b 61da 3c3c 2f7a 003d 8ab7 8f3c
00000040: ecf8 503d 4c6d 1b3c 19a1 d53c 7f7a 0c3e
00000050: bfde 823d 7dbe 543d 216d 833c 9871 853c
00000060: 921d 5c3c c48a 1c3d 92c8 d03b 5614 f03b
00000070: 51f6 633d 1ee5 a03c ed3a 7a3c 1bdf e33b
00000080: 8c61 983c d041 3d3c e12d d63b cfbf 353c
00000090: d015 4a3b 14a3 893c ec80 a13b 7eb2 be3d
000000a0: 3b4f 943b dff4 623c 68ac 813d 7bb6 b33d
000000b0: ad36 e33d 1d6e 5d3c 1de5 923c 7312 243c
000000c0: 5099 ac3d 502c f63b 9868 4a3c 448d 673d
000000d0: 00c6 003c 75ac ab3d 3c32 513c 1bc8 1a3d
000000e0: e1d3 0a3b 4131 633c 1159 013c f12c 503b
000000f0: f149 323d b0dc af3b 70b2 633b 3638 b73b

height_layer.0.weight f4 [1, 64]
-0.42649624 -0.36679775 -0.26400167 -0.34101057 -0.28365448 -0.2751988 -0.35651377 -0.2874366
-0.28579918 -0.32318056 -0.27959234 -0.20064741 -0.22256252 -0.20570743 -0.20907708 -0.3518498
-0.2707078 -0.39553607 -0.31248856 -0.4035586 -0.22587214 -0.37439606 -0.41403767 -0.2784963
-0.24115425 -0.16390426 -0.31306863 -0.27449605 -0.43220508 -0.32780153 -0.46907955 -0.44328305
-0.20531468 -0.4825192 -0.4703096 -0.40119788 -0.2746116 -0.3289027 -0.30457568 -0.25611252
-0.347346 -0.38754523 -0.102524444 -0.33284745 -0.24379447 -0.5757218 -0.37552398 -0.34299877
-0.43151888 -0.27409628 -0.34746 -0.08019446 -0.03038583 -0.29481187 -0.37333363 -0.23897794
-0.33819407 -0.370766 -0.38235945 -0.42290032 -0.13608894 -0.4699226 -0.31333023 -0.4283979
00000000: b75d dabe eacc bbbe 3a2b 87be f098 aebe
00000010: 293b 91be dbe6 8cbe f988 b6be e42a 93be
00000020: 4554 92be ec77 a5be ba26 8fbe 8476 4dbe
00000030: 6ee7 63be f8a4 52be 4d18 56be a825 b4be
00000040: 369a 8abe b483 cabe 80fe 9fbe 3c9f cebe
00000050: 074b 67be d7b0 bfbe bffc d3be 1197 8ebe
00000060: 24f1 76be 85d6 27be 884a a0be bf8a 8cbe
00000070: fc49 ddbe 9ad5 a7be 322b f0be fff5 e2be
00000080: 033e 52be c20c f7be 6bcc f0be cf69 cdbe
00000090: e499 8cbe ef65 a8be 58f1 9bbe 2e21 83be
000000a0: 56d7 b1be 546c c6be 56f8 d1bd fb6a aabe
000000b0: 42a5 79be 8162 13bf ae44 c0be 899d afbe
000000c0: 0bf0 dcbe 5956 8cbe 47e6 b1be fe3c a4bd
000000d0: b4eb f8bc 95f1 96be 9625 bfbe a2b6 74be
000000e0: c627 adbe 0bd5 bdbe 9ec4 c3be 6486 d8be
000000f0: e65a 0bbe b299 f0be d26c a0be f856 dbbe

range_layer.0.weight f4 [1, 64]
-0.080787435 0.1277787 0.13741094 -0.3272549 -0.28656274 0.0120322015 -0.27931777 0.09652504
0.14224249 -0.2984338 0.12788169 0.13999376 0.10442566 -0.35665458 0.11144623 -0.2695642
0.12464236 -0.16089055 -0.37320343 -0.23306382 -0.23954904 -0.27182502 -0.12338083 -0.23336257
-0.37280357 -0.4130983 -0.1554203 -0.0453145 -0.23957303 0.071864955 -0.13670197 -0.19726332
0.1280749 -0.2647105 0.010872089 -0.14231467 -0.034140598 -0.22997132 0.14851844 -0.020140357
0.055674072 -0.36136743 0.1804198 -0.330015 -0.23546463 -0.2806241 -0.15756941 0.16245602
-0.23523904 -0.043662265 -0.25217816 0.3222475 0.050574392 0.15854949 0.26646277 -0.24819298
0.08051299 -0.23875995 -0.14669484 0.010897049 0.20650597 -0.19303961 0.102451935 -0.3261906
00000000: e273 a5bd 6bd8 023e 74b5 0c3e f48d a7be
00000010: 5ab8 92be b622 453c bd02 8fbe ecae c53d
00000020: 04a8 113e 51cc 98be 6bf3 023e 865a 0f3e
00000030: 1fdd d53d 6e9b b6be ec3d e43d 5204 8abe
00000040: 7e44 ff3d 7ec0 24be 8514 bfbe 48a8 6ebe
00000050: 584c 75be a62c 8bbe 17af fcbd 99f6 6ebe
00000060: 1ce0 bebe 9f81 d3be 8026 1fbe b29b 39bd
00000070: a252 75be ef2d 933d 9afb 0bbe 65ff 49be
00000080: 1126 033e 2288 87be d920 323c f0ba 11be
00000090: 03d7 0bbd 9a7d 6bbe 3815 183e 64fd a4bc
000000a0: 7f0a 643d 2705 b9be f8bf 383e baf7 a8be
000000b0: a41d 71be f6ad 8fbe e059 21be df5a 263e
000000c0: 81e2 70be 34d7 32bd 7f1d 81be a0fd a43e
000000d0: 1827 4f3d cc5a 223e cf6d 883e 4d26 7ebe
000000e0: ffe3 a43d 7d7d 74be 2c37 16be 8989 323c
000000f0: 4d76 533e 2dac 45be 52d2 d13d 7402 a7be
