projection/weight/wo_b.pt (torch, 2971 bytes, 3 tensors)

layers.0.weight f4 [64, 2]
0.76422566 2.46684 -1.6979011 1.0113417 0.10610049 -0.52671343 -0.1777245 -0.6718843
-0.21804571 -0.065862626 -0.19662069 -0.45374638 -1.2041972 0.4312427 -0.46292993 -0.62816775
0.5352167 -1.5237167 -1.4367988 1.1736737 0.1615556 -0.7624403 -0.13412416 -0.33310932
-0.550222 -0.21085984 -0.5561033 -0.15959764 0.17933385 -0.9128945 -1.569223 1.1333176
-0.07088046 -0.66122687 -0.27979207 -0.59899217 -0.43492588 -0.34256595 -0.29381135 -0.8773514
-0.048523035 -0.7156713 0.41514045 -1.5222855 -0.38215533 -0.49752012 -2.4917078 0.45359573
-0.5341892 -0.4722521 0.15271223 -0.8572853 -0.30835417 -0.52908134 -0.13941325 -0.6545574
-1.8923403 0.84759104 0.7237816 -0.9636218 0.17800571 -0.82036835 -0.65752286 -0.15264282
0.49437565 -2.0224953 -0.03273743 -0.8207041 -0.4067787 -0.25376388 -0.48415947 -0.46652505
-0.6539049 -0.036816787 -0.16122964 -0.60919523 0.16508435 -0.85677314 0.20766276 -1.0008221
0.8769818 -0.7487414 -0.6957213 -0.43876758 -1.9369591 1.9507961 0.24353454 -1.0917748
0.45580336 -1.3999637 -0.16363285 -0.7810939 -0.45299268 -0.2979748 0.8918868 -0.76892763
-0.5294381 -0.647981 -0.3736312 -0.5830057 -0.11141797 -0.6210105 -0.13559282 -0.13622856
-0.08046153 -0.42233366 -1.9857403 0.55828375 -0.17430592 -0.6521513 -2.923608 0.31537008
-0.054835323 -0.36081704 0.69878656 -1.5143858 -0.041529566 -0.62096256 -4.5801215 0.2774408
-0.6527188 -0.7039172 -1.4632709 1.4804114 -1.2413399 1.1641221 -0.3639644 -0.45013562
00000000: 4ba4 433f b5e0 1d40 d354 d9bf a573 813f
00000010: 374b d93d b1d6 06bf 69fd 35be 9c00 2cbf
00000020: 6047 5fbe fce2 86bd ef56 49be 7251 e8be
00000030: 2223 9abf d8cb dc3e 2705 edbe 9acf 20bf
00000040: f603 093f 2609 c3bf 06e9 b7bf f13a 963f
00000050: d56e 253e 4a2f 43bf d857 09be 4e8d aabe
00000060: 59db 0cbf a4eb 57be c95c 0ebf 906d 23be
00000070: 4ba3 373e 74b3 69bf 4ddc c8bf 8d10 913f
00000080: c629 91bd 2a46 29bf e840 8fbe 8d57 19bf
00000090: 9bae debe ce64 afbe 716e 96be 1a9a 60bf
000000a0: 17c0 46bd 3c36 37bf 4a8d d43e 40da c2bf
000000b0: dda9 c3be f5ba febe 2478 1fc0 b33d e83e
000000c0: a0c0 08bf 07cb f1be 9860 1c3e 0d77 5bbf
000000d0: 99e0 9dbe e071 07bf 59c2 0ebe 1391 27bf
000000e0: 3538 f2bf bafb 583f c049 393f ebaf 76bf
000000f0: 2147 363e a903 52bf 6b53 28bf 664e 1cbe
00000100: ce1e fd3e 9070 01c0 af17 06bd aa19 52bf
00000110: 4c45 d0be 57ed 81be c0e3 f7be 5fdc eebe
00000120: 5066 27bf 33cd 16bd 6219 25be 38f4 1bbf
00000130: df0b 293e 7c55 5bbf 8ca5 543e f01a 80bf
00000140: e181 603f 84ad 3fbf cb1a 32bf 25a6 e0be
00000150: 47ee f7bf b0b3 f93f 1e61 793e 47bf 8bbf
00000160: 0f5f e93e 0332 b3bf 5f8f 27be c5f5 47bf
00000170: a8ee e7be 2790 98be b152 643f 71d8 44bf
00000180: 4189 07bf 15e2 25bf 974c bfbe dd3f 15bf
00000190: 1b2f e4bd 8bfa 1ebf d8d8 0abe 807f 0bbe
000001a0: 04c9 a4bd 1e3c d8be bd2c febf afeb 0e3f
000001b0: 407d 32be 63f3 26bf 651c 3bc0 3078 a13e
000001c0: 019b 60bd 03bd b8be ade3 323f 65d7 c1bf
000001d0: e81a 2abd 67f7 1ebf 5b90 92c0 b80c 8e3e
000001e0: 9418 27bf eb33 34bf 764c bbbf 1f7e bd3f
000001f0: 3ae4 9ebf f401 953f 8b59 babe 2d78 e6be

height_layer.0.weight f4 [1, 64]
2.5146995 -0.485183 -0.37942386 -0.072272286 -0.033407122 0.11814116 -0.5936043 -0.10595627
-0.4509992 -0.5643589 -0.4196312 -0.33805817 -0.0005155355 -0.041998833 -0.8846494 -0.2935913
0.074328646 -0.3599546 -0.03833142 -0.35489264 -0.29688296 -1.1075453 -0.22524378 -1.1827686
-0.2958818 -0.4297981 -0.08136435 0.03223972 -0.5297175 0.8492472 -0.41189888 0.09455687
-0.7028692 -0.24257667 -0.069606766 0.0687353 -0.046849325 -0.19266894 -0.51092744 -0.95022035
0.17892596 -0.08323188 0.048596688 -1.0537164 -0.52799296 -0.27298766 -0.1842001 -0.28154835
-0.07500894 -0.10114184 -0.10330638 0.050842807 -0.054444626 -1.8861585 -0.33664507 -0.69905883
-0.11049184 -0.628113 -0.08553259 -1.100996 -0.032201767 0.10467134 -1.5038013 -0.29455227
00000000: d6f0 2040 e869 f8be d843 c2be 7e03 94bd
00000010: e8d5 08bd fef3 f13d 74f6 17bf 9aff d8bd
00000020: 5ee9 e6be d379 10bf e7d9 d6be f615 adbe
00000030: 0025 07ba f806 2cbd 6278 62bf 9951 96be
00000040: 9e39 983d f84b b8be 6801 1dbd 7db4 b5be
00000050: 0b01 98be 0bc4 8dbf 4ea6 66be f664 97bf
00000060: d27d 97be 7f0e dcbe 5aa2 a6bd cc0d 043d
00000070: 919b 07bf 4468 593f 69e4 d2be 08a7 c13d
00000080: 3cef 33bf 0566 78be fe8d 8ebd 18c5 8c3d
00000090: 14e5 3fbd 024b 45be 24cc 02bf a441 73bf
000000a0: 5e38 373e 7a75 aabd 520d 473d 2ee0 86bf
000000b0: 8c2a 07bf 0ac5 8bbe f39e 3cbe 1b27 90be
000000c0: 4a9e 99bd 7423 cfbd 4c92 d3bd 8c40 503d
000000d0: 5401 5fbd a46d f1bf be5c acbe 85f5 32bf
000000e0: 8c49 e2bd 03cc 20bf b62b afbd 70ed 8cbf
000000f0: 00e6 03bd ed5d d63d 907c c0bf 8ecf 96be

range_layer.0.weight f4 [1, 64]
1.0286028 -1.9356271 -0.34194258 -0.06275588 0.0018641949 -0.122676104 -0.53120214 -0.111673415
-0.9058858 -1.5425292 -0.45779112 -0.2959924 -0.04158926 0.008597463 -0.6926437 -1.9247657
0.041707784 -0.27549243 0.021829307 -0.18101574 -0.12513731 -1.55282 0.20845418 -1.2392759
0.21808279 -0.13193952 0.049264595 0.11747955 -1.5511394 -0.7776593 -0.49589446 -0.06266518
-0.92111015 -0.09236449 -0.009797022 0.007980764 -0.057526514 0.020033784 -0.34916672 -1.0007489
-0.6282039 -0.049752638 2.9750524 -1.4177893 -0.8169075 -0.31638893 -0.2626518 -0.56123805
-0.08790518 -0.118163526 -0.0037177652 0.07724503 0.04009047 -1.222946 -0.29229492 -2.1926827
0.07923646 -1.7018945 0.10790315 -3.899086 -0.023257747 1.808654 -0.5733293 0.057141148
00000000: 42a9 833f a1c2 f7bf 1913 afbe 2886 80bd
00000010: 0058 f43a 9c3d fbbd ddfc 07bf 08b5 e4bd
00000020: 22e8 67bf 9971 c5bf 9963 eabe 518c 97be
00000030: 8059 2abd 60dc 0c3c 1951 31bf b95e f6bf
00000040: c8d5 2a3d 580d 8dbe 60d3 b23c 315c 39be
00000050: ff23 00be cec2 c6bf 0375 553e 98a0 9ebf
00000060: 1851 5f3e 271b 07be acc9 493d 1e99 f03d
00000070: bc8b c6bf ae14 47bf e1e5 fdbe 9a56 80bd
00000080: e0cd 6bbf 9829 bdbd b083 20bc c0c1 023c
00000090: eca0 6bbd e41d a43c fbc5 b2be 8a18 80bf
000000a0: f9d1 20bf 6cc9 4bbd 4267 3e40 1f7a b5bf
000000b0: da20 51bf bbfd a1be 4c7a 86be 4cad 0fbf
000000c0: a207 b4bd b8ff f1bd c0a5 73bb a432 9e3d
000000d0: e835 243d 7f89 9cbf aea7 95be ea54 0cc0
000000e0: ba46 a23d aed7 d9bf 54fc dc3d a08a 79c0
000000f0: 0887 bebc f981 e73f b6c5 12bf d60c 6a3d
